<<<<<<< HEAD
Neural Network Tools for STM32 family v1.7.0 (stm.ai v8.1.0-19520)
Created date          : 2025-07-22 14:54:16
Parameters            : generate -m E:\hjTan\Documents\CODE_SPACE\stm32ai-modelzoo-2.0.0\experiments_outputs\2025_07_22_14_14_19\quantized_models\quantized_model.tflite -v 0 --allocate-inputs --allocate-outputs --output E:\hjTan\Documents\CODE_SPACE\stm32ai-modelzoo-2.0.0\experiments_outputs\2025_07_22_14_14_19/stm32ai_files --workspace E:\hjTan\Documents\CODE_SPACE\stm32ai-modelzoo-2.0.0\experiments_outputs\2025_07_22_14_14_19/stm32ai_files --optimization balanced

Exec/report summary (generate)
--------------------------------------------------------------------------------------------------------------------------------------------------------------
model file         :   E:\hjTan\Documents\CODE_SPACE\stm32ai-modelzoo-2.0.0\experiments_outputs\2025_07_22_14_14_19\quantized_models\quantized_model.tflite   
type               :   tflite                                                                                                                                 
c_name             :   network                                                                                                                                
compression        :   lossless                                                                                                                               
options            :   allocate-inputs, allocate-outputs                                                                                                      
optimization       :   balanced                                                                                                                               
workspace dir      :   E:\hjTan\Documents\CODE_SPACE\stm32ai-modelzoo-2.0.0\experiments_outputs\2025_07_22_14_14_19\stm32ai_files                             
output dir         :   E:\hjTan\Documents\CODE_SPACE\stm32ai-modelzoo-2.0.0\experiments_outputs\2025_07_22_14_14_19\stm32ai_files                             
model_fmt          :   ss/sa per channel                                                                                                                      
model_name         :   quantized_model                                                                                                                        
model_hash         :   c287274618a83933cfe1e1850d88f567                                                                                                       
params #           :   669,704 items (671.11 KiB)                                                                                                             
--------------------------------------------------------------------------------------------------------------------------------------------------------------
input 1/1          :   'serving_default_input_10' (domain:activations/**default**)                                                                            
                   :   150528 items, 147.00 KiB, ai_u8, s=0.00784314, zp=127, (1,224,224,3)                                                                   
output 1/1         :   'conversion_102' (domain:activations/**default**)                                                                                      
                   :   39 items, 156 B, ai_float, float, (1,39)                                                                                               
macc               :   20,176,174                                                                                                                             
weights (ro)       :   687,248 B (671.14 KiB) (1 segment) / -1,991,568(-74.3%) vs float model                                                                 
activations (rw)   :   156,600 B (152.93 KiB) (1 segment) *                                                                                                   
ram (total)        :   156,600 B (152.93 KiB) = 156,600 + 0 + 0                                                                                               
--------------------------------------------------------------------------------------------------------------------------------------------------------------
(*) 'input'/'output' buffers can be used from the activations buffer

Model name - quantized_model ['serving_default_input_10'] ['conversion_102']
------ --------------------------------------------------------------------------- ----------------------------- ----------------- ----------- ----------------------------------------------------------- --- ------------- ------------------- ----------------------------- 
m_id   layer (type,original)                                                       oshape                        param/size               macc                                                connected to   | c_size        c_macc              c_type                        
------ --------------------------------------------------------------------------- ----------------------------- ----------------- ----------- ----------------------------------------------------------- --- ------------- ------------------- ----------------------------- 
0      serving_default_input_10 (Input, )                                          [b:1,h:224,h:224,w:224,c:3]                                                                                               |               +301,056(+100.0%)   converter_oi8[0]              
       conversion_0 (Conversion, QUANTIZE)                                         [b:1,h:224,h:224,w:224,c:3]                         301,056                                    serving_default_input_10   |               -301,056(-100.0%)   
------ --------------------------------------------------------------------------- ----------------------------- ----------------- ----------- ----------------------------------------------------------- --- ------------- ------------------- ----------------------------- 
1      conv2d_1 (Conv2D, CONV_2D)                                                  [b:1,h:112,h:112,w:112,c:8]   224/248             2,709,512                                                conversion_0   |                                   optimized_conv2d_oi8[1]       
       nl_1_nl (Nonlinearity, CONV_2D)                                             [b:1,h:112,h:112,w:112,c:8]                         100,352                                                    conv2d_1   |               -100,352(-100.0%)   
------ --------------------------------------------------------------------------- ----------------------------- ----------------- ----------- ----------------------------------------------------------- --- ------------- ------------------- ----------------------------- 
2      conv2d_2 (Conv2D, CONV_2D)                                                  [b:1,h:112,h:112,w:112,c:8]   72/96                 802,824                                                     nl_1_nl   |                                   conv2d_oi8[2]                 
       nl_2_nl (Nonlinearity, CONV_2D)                                             [b:1,h:112,h:112,w:112,c:8]                         100,352                                                    conv2d_2   |               -100,352(-100.0%)   
------ --------------------------------------------------------------------------- ----------------------------- ----------------- ----------- ----------------------------------------------------------- --- ------------- ------------------- ----------------------------- 
3      conv2d_3 (Conv2D, DEPTHWISE_CONV_2D)                                        [b:1,h:56,h:56,w:56,c:8]      80/104                225,800                                                     nl_2_nl   |                                   pad_oi8/conv2d_oi8[3, 4]      
       nl_3_nl (Nonlinearity, DEPTHWISE_CONV_2D)                                   [b:1,h:56,h:56,w:56,c:8]                             25,088                                                    conv2d_3   |               -25,088(-100.0%)    
------ --------------------------------------------------------------------------- ----------------------------- ----------------- ----------- ----------------------------------------------------------- --- ------------- ------------------- ----------------------------- 
4      pool_4 (Pool, AVERAGE_POOL_2D)                                              [b:1,h:1,h:1,w:1,c:8]                                25,088                                                     nl_3_nl   |                                   pool_oi8[5]                   
------ --------------------------------------------------------------------------- ----------------------------- ----------------- ----------- ----------------------------------------------------------- --- ------------- ------------------- ----------------------------- 
5      conv2d_5 (Conv2D, CONV_2D)                                                  [b:1,h:1,h:1,w:1,c:2]         18/24                      18                                                      pool_4   |                                   conv2d_oi8[6]                 
       nl_5_nl (Nonlinearity, CONV_2D)                                             [b:1,h:1,h:1,w:1,c:2]                                     2                                                    conv2d_5   |               -2(-100.0%)         
------ --------------------------------------------------------------------------- ----------------------------- ----------------- ----------- ----------------------------------------------------------- --- ------------- ------------------- ----------------------------- 
6      conv2d_6 (Conv2D, CONV_2D)                                                  [b:1,h:1,h:1,w:1,c:8]         24/48                      24                                                     nl_5_nl   |                                   conv2d_oi8[7]                 
------ --------------------------------------------------------------------------- ----------------------------- ----------------- ----------- ----------------------------------------------------------- --- ------------- ------------------- ----------------------------- 
7      mobilenet_v3_alpha_0_5_conv2d_11_clip_by_value_Minimum_y (Placeholder, )    []                            1/1                                                                                         | +3(+300.0%)   +8(+100.0%)         eltwise_integer/min_oi8[8]    
       eltwise_7 (Eltwise, MINIMUM)                                                [b:1,h:1,h:1,w:1,c:8]                                     8                                                    conv2d_6   |               -8(-100.0%)         
                                                                                                                                                  mobilenet_v3_alpha_0_5_conv2d_11_clip_by_value_Minimum_y   | 
------ --------------------------------------------------------------------------- ----------------------------- ----------------- ----------- ----------------------------------------------------------- --- ------------- ------------------- ----------------------------- 
8      nl_8 (Nonlinearity, RELU)                                                   [b:1,h:1,h:1,w:1,c:8]                                     8                                                   eltwise_7   |               -8(-100.0%)         
------ --------------------------------------------------------------------------- ----------------------------- ----------------- ----------- ----------------------------------------------------------- --- ------------- ------------------- ----------------------------- 
9      eltwise_9 (Eltwise, MUL)                                                    [b:1,h:56,h:56,w:56,c:8]                             25,088                                                     nl_3_nl   |                                   eltwise_integer/mul_oi8[9]    
                                                                                                                                                                                                      nl_8   | 
------ --------------------------------------------------------------------------- ----------------------------- ----------------- ----------- ----------------------------------------------------------- --- ------------- ------------------- ----------------------------- 
10     conv2d_10 (Conv2D, CONV_2D)                                                 [b:1,h:56,h:56,w:56,c:8]      72/96                 200,712                                                   eltwise_9   |                                   conv2d_oi8[10]                
------ --------------------------------------------------------------------------- ----------------------------- ----------------- ----------- ----------------------------------------------------------- --- ------------- ------------------- ----------------------------- 
11     conv2d_11 (Conv2D, CONV_2D)                                                 [b:1,h:56,h:56,w:56,c:40]     360/480             1,003,560                                                   conv2d_10   |                                   conv2d_oi8[11]                
       nl_11_nl (Nonlinearity, CONV_2D)                                            [b:1,h:56,h:56,w:56,c:40]                           125,440                                                   conv2d_11   |               -125,440(-100.0%)   
------ --------------------------------------------------------------------------- ----------------------------- ----------------- ----------- ----------------------------------------------------------- --- ------------- ------------------- ----------------------------- 
12     conv2d_12 (Conv2D, DEPTHWISE_CONV_2D)                                       [b:1,h:28,h:28,w:28,c:40]     400/520               282,280                                                    nl_11_nl   |                                   pad_oi8/conv2d_oi8[12, 13]    
       nl_12_nl (Nonlinearity, DEPTHWISE_CONV_2D)                                  [b:1,h:28,h:28,w:28,c:40]                            31,360                                                   conv2d_12   |               -31,360(-100.0%)    
------ --------------------------------------------------------------------------- ----------------------------- ----------------- ----------- ----------------------------------------------------------- --- ------------- ------------------- ----------------------------- 
13     conv2d_13 (Conv2D, CONV_2D)                                                 [b:1,h:28,h:28,w:28,c:16]     656/704               501,776                                                    nl_12_nl   |                                   conv2d_oi8[14]                
------ --------------------------------------------------------------------------- ----------------------------- ----------------- ----------- ----------------------------------------------------------- --- ------------- ------------------- ----------------------------- 
14     conv2d_14 (Conv2D, CONV_2D)                                                 [b:1,h:28,h:28,w:28,c:48]     816/960               602,160                                                   conv2d_13   |                                   conv2d_oi8[15]                
       nl_14_nl (Nonlinearity, CONV_2D)                                            [b:1,h:28,h:28,w:28,c:48]                            37,632                                                   conv2d_14   |               -37,632(-100.0%)    
------ --------------------------------------------------------------------------- ----------------------------- ----------------- ----------- ----------------------------------------------------------- --- ------------- ------------------- ----------------------------- 
15     conv2d_15 (Conv2D, DEPTHWISE_CONV_2D)                                       [b:1,h:28,h:28,w:28,c:48]     480/624               338,736                                                    nl_14_nl   |                                   pad_oi8/conv2d_oi8[16, 17]    
       nl_15_nl (Nonlinearity, DEPTHWISE_CONV_2D)                                  [b:1,h:28,h:28,w:28,c:48]                            37,632                                                   conv2d_15   |               -37,632(-100.0%)    
------ --------------------------------------------------------------------------- ----------------------------- ----------------- ----------- ----------------------------------------------------------- --- ------------- ------------------- ----------------------------- 
16     conv2d_16 (Conv2D, CONV_2D)                                                 [b:1,h:28,h:28,w:28,c:16]     784/832               602,128                                                    nl_15_nl   |                                   conv2d_oi8[18]                
------ --------------------------------------------------------------------------- ----------------------------- ----------------- ----------- ----------------------------------------------------------- --- ------------- ------------------- ----------------------------- 
17     eltwise_17 (Eltwise, ADD)                                                   [b:1,h:28,h:28,w:28,c:16]                            12,544                                                   conv2d_13   |                                   eltwise_integer/sum_oi8[19]   
                                                                                                                                                                                                 conv2d_16   | 
------ --------------------------------------------------------------------------- ----------------------------- ----------------- ----------- ----------------------------------------------------------- --- ------------- ------------------- ----------------------------- 
18     conv2d_18 (Conv2D, CONV_2D)                                                 [b:1,h:28,h:28,w:28,c:48]     816/960               602,160                                                  eltwise_17   |                                   conv2d_oi8[20]                
       nl_18_nl (Nonlinearity, CONV_2D)                                            [b:1,h:28,h:28,w:28,c:48]                            37,632                                                   conv2d_18   |               -37,632(-100.0%)    
------ --------------------------------------------------------------------------- ----------------------------- ----------------- ----------- ----------------------------------------------------------- --- ------------- ------------------- ----------------------------- 
19     conv2d_19 (Conv2D, DEPTHWISE_CONV_2D)                                       [b:1,h:14,h:14,w:14,c:48]     1,248/1,392           235,248                                                    nl_18_nl   |                                   conv2d_oi8[21]                
       nl_19_nl (Nonlinearity, DEPTHWISE_CONV_2D)                                  [b:1,h:14,h:14,w:14,c:48]                             9,408                                                   conv2d_19   |               -9,408(-100.0%)     
------ --------------------------------------------------------------------------- ----------------------------- ----------------- ----------- ----------------------------------------------------------- --- ------------- ------------------- ----------------------------- 
20     pool_20 (Pool, AVERAGE_POOL_2D)                                             [b:1,h:1,h:1,w:1,c:48]                                9,408                                                    nl_19_nl   |                                   pool_oi8[22]                  
------ --------------------------------------------------------------------------- ----------------------------- ----------------- ----------- ----------------------------------------------------------- --- ------------- ------------------- ----------------------------- 
21     conv2d_21 (Conv2D, CONV_2D)                                                 [b:1,h:1,h:1,w:1,c:12]        588/624                   588                                                     pool_20   |                                   conv2d_oi8[23]                
       nl_21_nl (Nonlinearity, CONV_2D)                                            [b:1,h:1,h:1,w:1,c:12]                                   12                                                   conv2d_21   |               -12(-100.0%)        
------ --------------------------------------------------------------------------- ----------------------------- ----------------- ----------- ----------------------------------------------------------- --- ------------- ------------------- ----------------------------- 
22     conv2d_22 (Conv2D, CONV_2D)                                                 [b:1,h:1,h:1,w:1,c:48]        624/768                   624                                                    nl_21_nl   |                                   conv2d_oi8[24]                
------ --------------------------------------------------------------------------- ----------------------------- ----------------- ----------- ----------------------------------------------------------- --- ------------- ------------------- ----------------------------- 
23     mobilenet_v3_alpha_0_5_conv2d_11_clip_by_value_Minimum_y1 (Placeholder, )   []                            1/1                                                                                         | +3(+300.0%)   +48(+100.0%)        eltwise_integer/min_oi8[25]   
       eltwise_23 (Eltwise, MINIMUM)                                               [b:1,h:1,h:1,w:1,c:48]                                   48                                                   conv2d_22   |               -48(-100.0%)        
                                                                                                                                                 mobilenet_v3_alpha_0_5_conv2d_11_clip_by_value_Minimum_y1   | 
------ --------------------------------------------------------------------------- ----------------------------- ----------------- ----------- ----------------------------------------------------------- --- ------------- ------------------- ----------------------------- 
24     nl_24 (Nonlinearity, RELU)                                                  [b:1,h:1,h:1,w:1,c:48]                                   48                                                  eltwise_23   |                                   nl_oi8[26]                    
------ --------------------------------------------------------------------------- ----------------------------- ----------------- ----------- ----------------------------------------------------------- --- ------------- ------------------- ----------------------------- 
25     eltwise_25 (Eltwise, MUL)                                                   [b:1,h:14,h:14,w:14,c:48]                             9,408                                                    nl_19_nl   |                                   eltwise_integer/mul_oi8[27]   
                                                                                                                                                                                                     nl_24   | 
------ --------------------------------------------------------------------------- ----------------------------- ----------------- ----------- ----------------------------------------------------------- --- ------------- ------------------- ----------------------------- 
26     conv2d_26 (Conv2D, CONV_2D)                                                 [b:1,h:14,h:14,w:14,c:24]     1,176/1,248           225,816                                                  eltwise_25   |                                   conv2d_oi8[28]                
------ --------------------------------------------------------------------------- ----------------------------- ----------------- ----------- ----------------------------------------------------------- --- ------------- ------------------- ----------------------------- 
27     conv2d_27 (Conv2D, CONV_2D)                                                 [b:1,h:14,h:14,w:14,c:120]    3,000/3,360           564,600                                                   conv2d_26   |                                   conv2d_oi8[29]                
       nl_27_nl (Nonlinearity, CONV_2D)                                            [b:1,h:14,h:14,w:14,c:120]                           23,520                                                   conv2d_27   |               -23,520(-100.0%)    
------ --------------------------------------------------------------------------- ----------------------------- ----------------- ----------- ----------------------------------------------------------- --- ------------- ------------------- ----------------------------- 
28     conv2d_28 (Conv2D, DEPTHWISE_CONV_2D)                                       [b:1,h:14,h:14,w:14,c:120]    3,120/3,480           588,120                                                    nl_27_nl   |                                   conv2d_oi8[30]                
       nl_28_nl (Nonlinearity, DEPTHWISE_CONV_2D)                                  [b:1,h:14,h:14,w:14,c:120]                           23,520                                                   conv2d_28   |               -23,520(-100.0%)    
------ --------------------------------------------------------------------------- ----------------------------- ----------------- ----------- ----------------------------------------------------------- --- ------------- ------------------- ----------------------------- 
29     pool_29 (Pool, AVERAGE_POOL_2D)                                             [b:1,h:1,h:1,w:1,c:120]                              23,520                                                    nl_28_nl   |                                   pool_oi8[31]                  
------ --------------------------------------------------------------------------- ----------------------------- ----------------- ----------- ----------------------------------------------------------- --- ------------- ------------------- ----------------------------- 
30     conv2d_30 (Conv2D, CONV_2D)                                                 [b:1,h:1,h:1,w:1,c:30]        3,630/3,720             3,630                                                     pool_29   |                                   conv2d_oi8[32]                
       nl_30_nl (Nonlinearity, CONV_2D)                                            [b:1,h:1,h:1,w:1,c:30]                                   30                                                   conv2d_30   |               -30(-100.0%)        
------ --------------------------------------------------------------------------- ----------------------------- ----------------- ----------- ----------------------------------------------------------- --- ------------- ------------------- ----------------------------- 
31     conv2d_31 (Conv2D, CONV_2D)                                                 [b:1,h:1,h:1,w:1,c:120]       3,720/4,080             3,720                                                    nl_30_nl   |                                   conv2d_oi8[33]                
------ --------------------------------------------------------------------------- ----------------------------- ----------------- ----------- ----------------------------------------------------------- --- ------------- ------------------- ----------------------------- 
32     mobilenet_v3_alpha_0_5_conv2d_11_clip_by_value_Minimum_y2 (Placeholder, )   []                            1/1                                                                                         | +3(+300.0%)   +120(+100.0%)       eltwise_integer/min_oi8[34]   
       eltwise_32 (Eltwise, MINIMUM)                                               [b:1,h:1,h:1,w:1,c:120]                                 120                                                   conv2d_31   |               -120(-100.0%)       
                                                                                                                                                 mobilenet_v3_alpha_0_5_conv2d_11_clip_by_value_Minimum_y2   | 
------ --------------------------------------------------------------------------- ----------------------------- ----------------- ----------- ----------------------------------------------------------- --- ------------- ------------------- ----------------------------- 
33     nl_33 (Nonlinearity, RELU)                                                  [b:1,h:1,h:1,w:1,c:120]                                 120                                                  eltwise_32   |                                   nl_oi8[35]                    
------ --------------------------------------------------------------------------- ----------------------------- ----------------- ----------- ----------------------------------------------------------- --- ------------- ------------------- ----------------------------- 
34     eltwise_34 (Eltwise, MUL)                                                   [b:1,h:14,h:14,w:14,c:120]                           23,520                                                    nl_28_nl   |                                   eltwise_integer/mul_oi8[36]   
                                                                                                                                                                                                     nl_33   | 
------ --------------------------------------------------------------------------- ----------------------------- ----------------- ----------- ----------------------------------------------------------- --- ------------- ------------------- ----------------------------- 
35     conv2d_35 (Conv2D, CONV_2D)                                                 [b:1,h:14,h:14,w:14,c:24]     2,904/2,976           564,504                                                  eltwise_34   |                                   conv2d_oi8[37]                
------ --------------------------------------------------------------------------- ----------------------------- ----------------- ----------- ----------------------------------------------------------- --- ------------- ------------------- ----------------------------- 
36     eltwise_36 (Eltwise, ADD)                                                   [b:1,h:14,h:14,w:14,c:24]                             4,704                                                   conv2d_26   |                                   eltwise_integer/sum_oi8[38]   
                                                                                                                                                                                                 conv2d_35   | 
------ --------------------------------------------------------------------------- ----------------------------- ----------------- ----------- ----------------------------------------------------------- --- ------------- ------------------- ----------------------------- 
37     conv2d_37 (Conv2D, CONV_2D)                                                 [b:1,h:14,h:14,w:14,c:120]    3,000/3,360           564,600                                                  eltwise_36   |                                   conv2d_oi8[39]                
       nl_37_nl (Nonlinearity, CONV_2D)                                            [b:1,h:14,h:14,w:14,c:120]                           23,520                                                   conv2d_37   |               -23,520(-100.0%)    
------ --------------------------------------------------------------------------- ----------------------------- ----------------- ----------- ----------------------------------------------------------- --- ------------- ------------------- ----------------------------- 
38     conv2d_38 (Conv2D, DEPTHWISE_CONV_2D)                                       [b:1,h:14,h:14,w:14,c:120]    3,120/3,480           588,120                                                    nl_37_nl   |                                   conv2d_oi8[40]                
       nl_38_nl (Nonlinearity, DEPTHWISE_CONV_2D)                                  [b:1,h:14,h:14,w:14,c:120]                           23,520                                                   conv2d_38   |               -23,520(-100.0%)    
------ --------------------------------------------------------------------------- ----------------------------- ----------------- ----------- ----------------------------------------------------------- --- ------------- ------------------- ----------------------------- 
39     pool_39 (Pool, AVERAGE_POOL_2D)                                             [b:1,h:1,h:1,w:1,c:120]                              23,520                                                    nl_38_nl   |                                   pool_oi8[41]                  
------ --------------------------------------------------------------------------- ----------------------------- ----------------- ----------- ----------------------------------------------------------- --- ------------- ------------------- ----------------------------- 
40     conv2d_40 (Conv2D, CONV_2D)                                                 [b:1,h:1,h:1,w:1,c:30]        3,630/3,720             3,630                                                     pool_39   |                                   conv2d_oi8[42]                
       nl_40_nl (Nonlinearity, CONV_2D)                                            [b:1,h:1,h:1,w:1,c:30]                                   30                                                   conv2d_40   |               -30(-100.0%)        
------ --------------------------------------------------------------------------- ----------------------------- ----------------- ----------- ----------------------------------------------------------- --- ------------- ------------------- ----------------------------- 
41     conv2d_41 (Conv2D, CONV_2D)                                                 [b:1,h:1,h:1,w:1,c:120]       3,720/4,080             3,720                                                    nl_40_nl   |                                   conv2d_oi8[43]                
------ --------------------------------------------------------------------------- ----------------------------- ----------------- ----------- ----------------------------------------------------------- --- ------------- ------------------- ----------------------------- 
42     mobilenet_v3_alpha_0_5_conv2d_11_clip_by_value_Minimum_y3 (Placeholder, )   []                            1/1                                                                                         | +3(+300.0%)   +120(+100.0%)       eltwise_integer/min_oi8[44]   
       eltwise_42 (Eltwise, MINIMUM)                                               [b:1,h:1,h:1,w:1,c:120]                                 120                                                   conv2d_41   |               -120(-100.0%)       
                                                                                                                                                 mobilenet_v3_alpha_0_5_conv2d_11_clip_by_value_Minimum_y3   | 
------ --------------------------------------------------------------------------- ----------------------------- ----------------- ----------- ----------------------------------------------------------- --- ------------- ------------------- ----------------------------- 
43     nl_43 (Nonlinearity, RELU)                                                  [b:1,h:1,h:1,w:1,c:120]                                 120                                                  eltwise_42   |                                   nl_oi8[45]                    
------ --------------------------------------------------------------------------- ----------------------------- ----------------- ----------- ----------------------------------------------------------- --- ------------- ------------------- ----------------------------- 
44     eltwise_44 (Eltwise, MUL)                                                   [b:1,h:14,h:14,w:14,c:120]                           23,520                                                    nl_38_nl   |                                   eltwise_integer/mul_oi8[46]   
                                                                                                                                                                                                     nl_43   | 
------ --------------------------------------------------------------------------- ----------------------------- ----------------- ----------- ----------------------------------------------------------- --- ------------- ------------------- ----------------------------- 
45     conv2d_45 (Conv2D, CONV_2D)                                                 [b:1,h:14,h:14,w:14,c:24]     2,904/2,976           564,504                                                  eltwise_44   |                                   conv2d_oi8[47]                
------ --------------------------------------------------------------------------- ----------------------------- ----------------- ----------- ----------------------------------------------------------- --- ------------- ------------------- ----------------------------- 
46     eltwise_46 (Eltwise, ADD)                                                   [b:1,h:14,h:14,w:14,c:24]                             4,704                                                  eltwise_36   |                                   eltwise_integer/sum_oi8[48]   
                                                                                                                                                                                                 conv2d_45   | 
------ --------------------------------------------------------------------------- ----------------------------- ----------------- ----------- ----------------------------------------------------------- --- ------------- ------------------- ----------------------------- 
47     conv2d_47 (Conv2D, CONV_2D)                                                 [b:1,h:14,h:14,w:14,c:64]     1,600/1,792           301,120                                                  eltwise_46   |                                   conv2d_oi8[49]                
       nl_47_nl (Nonlinearity, CONV_2D)                                            [b:1,h:14,h:14,w:14,c:64]                            12,544                                                   conv2d_47   |               -12,544(-100.0%)    
------ --------------------------------------------------------------------------- ----------------------------- ----------------- ----------- ----------------------------------------------------------- --- ------------- ------------------- ----------------------------- 
48     conv2d_48 (Conv2D, DEPTHWISE_CONV_2D)                                       [b:1,h:14,h:14,w:14,c:64]     1,664/1,856           313,664                                                    nl_47_nl   |                                   conv2d_oi8[50]                
       nl_48_nl (Nonlinearity, DEPTHWISE_CONV_2D)                                  [b:1,h:14,h:14,w:14,c:64]                            12,544                                                   conv2d_48   |               -12,544(-100.0%)    
------ --------------------------------------------------------------------------- ----------------------------- ----------------- ----------- ----------------------------------------------------------- --- ------------- ------------------- ----------------------------- 
49     pool_49 (Pool, AVERAGE_POOL_2D)                                             [b:1,h:1,h:1,w:1,c:64]                               12,544                                                    nl_48_nl   |                                   pool_oi8[51]                  
------ --------------------------------------------------------------------------- ----------------------------- ----------------- ----------- ----------------------------------------------------------- --- ------------- ------------------- ----------------------------- 
50     conv2d_50 (Conv2D, CONV_2D)                                                 [b:1,h:1,h:1,w:1,c:16]        1,040/1,088             1,040                                                     pool_49   |                                   conv2d_oi8[52]                
       nl_50_nl (Nonlinearity, CONV_2D)                                            [b:1,h:1,h:1,w:1,c:16]                                   16                                                   conv2d_50   |               -16(-100.0%)        
------ --------------------------------------------------------------------------- ----------------------------- ----------------- ----------- ----------------------------------------------------------- --- ------------- ------------------- ----------------------------- 
51     conv2d_51 (Conv2D, CONV_2D)                                                 [b:1,h:1,h:1,w:1,c:64]        1,088/1,280             1,088                                                    nl_50_nl   |                                   conv2d_oi8[53]                
------ --------------------------------------------------------------------------- ----------------------------- ----------------- ----------- ----------------------------------------------------------- --- ------------- ------------------- ----------------------------- 
52     mobilenet_v3_alpha_0_5_conv2d_11_clip_by_value_Minimum_y4 (Placeholder, )   []                            1/1                                                                                         | +3(+300.0%)   +64(+100.0%)        eltwise_integer/min_oi8[54]   
       eltwise_52 (Eltwise, MINIMUM)                                               [b:1,h:1,h:1,w:1,c:64]                                   64                                                   conv2d_51   |               -64(-100.0%)        
                                                                                                                                                 mobilenet_v3_alpha_0_5_conv2d_11_clip_by_value_Minimum_y4   | 
------ --------------------------------------------------------------------------- ----------------------------- ----------------- ----------- ----------------------------------------------------------- --- ------------- ------------------- ----------------------------- 
53     nl_53 (Nonlinearity, RELU)                                                  [b:1,h:1,h:1,w:1,c:64]                                   64                                                  eltwise_52   |                                   nl_oi8[55]                    
------ --------------------------------------------------------------------------- ----------------------------- ----------------- ----------- ----------------------------------------------------------- --- ------------- ------------------- ----------------------------- 
54     eltwise_54 (Eltwise, MUL)                                                   [b:1,h:14,h:14,w:14,c:64]                            12,544                                                    nl_48_nl   |                                   eltwise_integer/mul_oi8[56]   
                                                                                                                                                                                                     nl_53   | 
------ --------------------------------------------------------------------------- ----------------------------- ----------------- ----------- ----------------------------------------------------------- --- ------------- ------------------- ----------------------------- 
55     conv2d_55 (Conv2D, CONV_2D)                                                 [b:1,h:14,h:14,w:14,c:24]     1,560/1,632           301,080                                                  eltwise_54   |                                   conv2d_oi8[57]                
------ --------------------------------------------------------------------------- ----------------------------- ----------------- ----------- ----------------------------------------------------------- --- ------------- ------------------- ----------------------------- 
56     eltwise_56 (Eltwise, ADD)                                                   [b:1,h:14,h:14,w:14,c:24]                             4,704                                                  eltwise_46   |                                   eltwise_integer/sum_oi8[58]   
                                                                                                                                                                                                 conv2d_55   | 
------ --------------------------------------------------------------------------- ----------------------------- ----------------- ----------- ----------------------------------------------------------- --- ------------- ------------------- ----------------------------- 
57     conv2d_57 (Conv2D, CONV_2D)                                                 [b:1,h:14,h:14,w:14,c:72]     1,800/2,016           338,760                                                  eltwise_56   |                                   conv2d_oi8[59]                
       nl_57_nl (Nonlinearity, CONV_2D)                                            [b:1,h:14,h:14,w:14,c:72]                            14,112                                                   conv2d_57   |               -14,112(-100.0%)    
------ --------------------------------------------------------------------------- ----------------------------- ----------------- ----------- ----------------------------------------------------------- --- ------------- ------------------- ----------------------------- 
58     conv2d_58 (Conv2D, DEPTHWISE_CONV_2D)                                       [b:1,h:14,h:14,w:14,c:72]     1,872/2,088           352,872                                                    nl_57_nl   |                                   conv2d_oi8[60]                
       nl_58_nl (Nonlinearity, DEPTHWISE_CONV_2D)                                  [b:1,h:14,h:14,w:14,c:72]                            14,112                                                   conv2d_58   |               -14,112(-100.0%)    
------ --------------------------------------------------------------------------- ----------------------------- ----------------- ----------- ----------------------------------------------------------- --- ------------- ------------------- ----------------------------- 
59     pool_59 (Pool, AVERAGE_POOL_2D)                                             [b:1,h:1,h:1,w:1,c:72]                               14,112                                                    nl_58_nl   |                                   pool_oi8[61]                  
------ --------------------------------------------------------------------------- ----------------------------- ----------------- ----------- ----------------------------------------------------------- --- ------------- ------------------- ----------------------------- 
60     conv2d_60 (Conv2D, CONV_2D)                                                 [b:1,h:1,h:1,w:1,c:18]        1,314/1,368             1,314                                                     pool_59   |                                   conv2d_oi8[62]                
       nl_60_nl (Nonlinearity, CONV_2D)                                            [b:1,h:1,h:1,w:1,c:18]                                   18                                                   conv2d_60   |               -18(-100.0%)        
------ --------------------------------------------------------------------------- ----------------------------- ----------------- ----------- ----------------------------------------------------------- --- ------------- ------------------- ----------------------------- 
61     conv2d_61 (Conv2D, CONV_2D)                                                 [b:1,h:1,h:1,w:1,c:72]        1,368/1,584             1,368                                                    nl_60_nl   |                                   conv2d_oi8[63]                
------ --------------------------------------------------------------------------- ----------------------------- ----------------- ----------- ----------------------------------------------------------- --- ------------- ------------------- ----------------------------- 
62     mobilenet_v3_alpha_0_5_conv2d_11_clip_by_value_Minimum_y5 (Placeholder, )   []                            1/1                                                                                         | +3(+300.0%)   +72(+100.0%)        eltwise_integer/min_oi8[64]   
       eltwise_62 (Eltwise, MINIMUM)                                               [b:1,h:1,h:1,w:1,c:72]                                   72                                                   conv2d_61   |               -72(-100.0%)        
                                                                                                                                                 mobilenet_v3_alpha_0_5_conv2d_11_clip_by_value_Minimum_y5   | 
------ --------------------------------------------------------------------------- ----------------------------- ----------------- ----------- ----------------------------------------------------------- --- ------------- ------------------- ----------------------------- 
63     nl_63 (Nonlinearity, RELU)                                                  [b:1,h:1,h:1,w:1,c:72]                                   72                                                  eltwise_62   |                                   nl_oi8[65]                    
------ --------------------------------------------------------------------------- ----------------------------- ----------------- ----------- ----------------------------------------------------------- --- ------------- ------------------- ----------------------------- 
64     eltwise_64 (Eltwise, MUL)                                                   [b:1,h:14,h:14,w:14,c:72]                            14,112                                                    nl_58_nl   |                                   eltwise_integer/mul_oi8[66]   
                                                                                                                                                                                                     nl_63   | 
------ --------------------------------------------------------------------------- ----------------------------- ----------------- ----------- ----------------------------------------------------------- --- ------------- ------------------- ----------------------------- 
65     conv2d_65 (Conv2D, CONV_2D)                                                 [b:1,h:14,h:14,w:14,c:24]     1,752/1,824           338,712                                                  eltwise_64   |                                   conv2d_oi8[67]                
------ --------------------------------------------------------------------------- ----------------------------- ----------------- ----------- ----------------------------------------------------------- --- ------------- ------------------- ----------------------------- 
66     eltwise_66 (Eltwise, ADD)                                                   [b:1,h:14,h:14,w:14,c:24]                             4,704                                                  eltwise_56   |                                   eltwise_integer/sum_oi8[68]   
                                                                                                                                                                                                 conv2d_65   | 
------ --------------------------------------------------------------------------- ----------------------------- ----------------- ----------- ----------------------------------------------------------- --- ------------- ------------------- ----------------------------- 
67     conv2d_67 (Conv2D, CONV_2D)                                                 [b:1,h:14,h:14,w:14,c:144]    3,600/4,032           677,520                                                  eltwise_66   |                                   conv2d_oi8[69]                
       nl_67_nl (Nonlinearity, CONV_2D)                                            [b:1,h:14,h:14,w:14,c:144]                           28,224                                                   conv2d_67   |               -28,224(-100.0%)    
------ --------------------------------------------------------------------------- ----------------------------- ----------------- ----------- ----------------------------------------------------------- --- ------------- ------------------- ----------------------------- 
68     conv2d_68 (Conv2D, DEPTHWISE_CONV_2D)                                       [b:1,h:7,h:7,w:7,c:144]       3,744/4,176           176,544                                                    nl_67_nl   |                                   conv2d_oi8[70]                
       nl_68_nl (Nonlinearity, DEPTHWISE_CONV_2D)                                  [b:1,h:7,h:7,w:7,c:144]                               7,056                                                   conv2d_68   |               -7,056(-100.0%)     
------ --------------------------------------------------------------------------- ----------------------------- ----------------- ----------- ----------------------------------------------------------- --- ------------- ------------------- ----------------------------- 
69     pool_69 (Pool, AVERAGE_POOL_2D)                                             [b:1,h:1,h:1,w:1,c:144]                               7,056                                                    nl_68_nl   |                                   pool_oi8[71]                  
------ --------------------------------------------------------------------------- ----------------------------- ----------------- ----------- ----------------------------------------------------------- --- ------------- ------------------- ----------------------------- 
70     conv2d_70 (Conv2D, CONV_2D)                                                 [b:1,h:1,h:1,w:1,c:36]        5,220/5,328             5,220                                                     pool_69   |                                   conv2d_oi8[72]                
       nl_70_nl (Nonlinearity, CONV_2D)                                            [b:1,h:1,h:1,w:1,c:36]                                   36                                                   conv2d_70   |               -36(-100.0%)        
------ --------------------------------------------------------------------------- ----------------------------- ----------------- ----------- ----------------------------------------------------------- --- ------------- ------------------- ----------------------------- 
71     conv2d_71 (Conv2D, CONV_2D)                                                 [b:1,h:1,h:1,w:1,c:144]       5,328/5,760             5,328                                                    nl_70_nl   |                                   conv2d_oi8[73]                
------ --------------------------------------------------------------------------- ----------------------------- ----------------- ----------- ----------------------------------------------------------- --- ------------- ------------------- ----------------------------- 
72     mobilenet_v3_alpha_0_5_conv2d_11_clip_by_value_Minimum_y6 (Placeholder, )   []                            1/1                                                                                         | +3(+300.0%)   +144(+100.0%)       eltwise_integer/min_oi8[74]   
       eltwise_72 (Eltwise, MINIMUM)                                               [b:1,h:1,h:1,w:1,c:144]                                 144                                                   conv2d_71   |               -144(-100.0%)       
                                                                                                                                                 mobilenet_v3_alpha_0_5_conv2d_11_clip_by_value_Minimum_y6   | 
------ --------------------------------------------------------------------------- ----------------------------- ----------------- ----------- ----------------------------------------------------------- --- ------------- ------------------- ----------------------------- 
73     nl_73 (Nonlinearity, RELU)                                                  [b:1,h:1,h:1,w:1,c:144]                                 144                                                  eltwise_72   |                                   nl_oi8[75]                    
------ --------------------------------------------------------------------------- ----------------------------- ----------------- ----------- ----------------------------------------------------------- --- ------------- ------------------- ----------------------------- 
74     eltwise_74 (Eltwise, MUL)                                                   [b:1,h:7,h:7,w:7,c:144]                               7,056                                                    nl_68_nl   |                                   eltwise_integer/mul_oi8[76]   
                                                                                                                                                                                                     nl_73   | 
------ --------------------------------------------------------------------------- ----------------------------- ----------------- ----------- ----------------------------------------------------------- --- ------------- ------------------- ----------------------------- 
75     conv2d_75 (Conv2D, CONV_2D)                                                 [b:1,h:7,h:7,w:7,c:48]        6,960/7,104           338,736                                                  eltwise_74   |                                   conv2d_oi8[77]                
------ --------------------------------------------------------------------------- ----------------------------- ----------------- ----------- ----------------------------------------------------------- --- ------------- ------------------- ----------------------------- 
76     conv2d_76 (Conv2D, CONV_2D)                                                 [b:1,h:7,h:7,w:7,c:288]       14,112/14,976         677,664                                                   conv2d_75   |                                   conv2d_oi8[78]                
       nl_76_nl (Nonlinearity, CONV_2D)                                            [b:1,h:7,h:7,w:7,c:288]                              14,112                                                   conv2d_76   |               -14,112(-100.0%)    
------ --------------------------------------------------------------------------- ----------------------------- ----------------- ----------- ----------------------------------------------------------- --- ------------- ------------------- ----------------------------- 
77     conv2d_77 (Conv2D, DEPTHWISE_CONV_2D)                                       [b:1,h:7,h:7,w:7,c:288]       7,488/8,352           353,088                                                    nl_76_nl   |                                   conv2d_oi8[79]                
       nl_77_nl (Nonlinearity, DEPTHWISE_CONV_2D)                                  [b:1,h:7,h:7,w:7,c:288]                              14,112                                                   conv2d_77   |               -14,112(-100.0%)    
------ --------------------------------------------------------------------------- ----------------------------- ----------------- ----------- ----------------------------------------------------------- --- ------------- ------------------- ----------------------------- 
78     pool_78 (Pool, AVERAGE_POOL_2D)                                             [b:1,h:1,h:1,w:1,c:288]                              14,112                                                    nl_77_nl   |                                   pool_oi8[80]                  
------ --------------------------------------------------------------------------- ----------------------------- ----------------- ----------- ----------------------------------------------------------- --- ------------- ------------------- ----------------------------- 
79     conv2d_79 (Conv2D, CONV_2D)                                                 [b:1,h:1,h:1,w:1,c:72]        20,808/21,024          20,808                                                     pool_78   |                                   conv2d_oi8[81]                
       nl_79_nl (Nonlinearity, CONV_2D)                                            [b:1,h:1,h:1,w:1,c:72]                                   72                                                   conv2d_79   |               -72(-100.0%)        
------ --------------------------------------------------------------------------- ----------------------------- ----------------- ----------- ----------------------------------------------------------- --- ------------- ------------------- ----------------------------- 
80     conv2d_80 (Conv2D, CONV_2D)                                                 [b:1,h:1,h:1,w:1,c:288]       21,024/21,888          21,024                                                    nl_79_nl   |                                   conv2d_oi8[82]                
------ --------------------------------------------------------------------------- ----------------------------- ----------------- ----------- ----------------------------------------------------------- --- ------------- ------------------- ----------------------------- 
81     mobilenet_v3_alpha_0_5_conv2d_11_clip_by_value_Minimum_y7 (Placeholder, )   []                            1/1                                                                                         | +3(+300.0%)   +288(+100.0%)       eltwise_integer/min_oi8[83]   
       eltwise_81 (Eltwise, MINIMUM)                                               [b:1,h:1,h:1,w:1,c:288]                                 288                                                   conv2d_80   |               -288(-100.0%)       
                                                                                                                                                 mobilenet_v3_alpha_0_5_conv2d_11_clip_by_value_Minimum_y7   | 
------ --------------------------------------------------------------------------- ----------------------------- ----------------- ----------- ----------------------------------------------------------- --- ------------- ------------------- ----------------------------- 
82     nl_82 (Nonlinearity, RELU)                                                  [b:1,h:1,h:1,w:1,c:288]                                 288                                                  eltwise_81   |                                   nl_oi8[84]                    
------ --------------------------------------------------------------------------- ----------------------------- ----------------- ----------- ----------------------------------------------------------- --- ------------- ------------------- ----------------------------- 
83     eltwise_83 (Eltwise, MUL)                                                   [b:1,h:7,h:7,w:7,c:288]                              14,112                                                    nl_77_nl   |                                   eltwise_integer/mul_oi8[85]   
                                                                                                                                                                                                     nl_82   | 
------ --------------------------------------------------------------------------- ----------------------------- ----------------- ----------- ----------------------------------------------------------- --- ------------- ------------------- ----------------------------- 
84     conv2d_84 (Conv2D, CONV_2D)                                                 [b:1,h:7,h:7,w:7,c:48]        13,872/14,016         677,424                                                  eltwise_83   |                                   conv2d_oi8[86]                
------ --------------------------------------------------------------------------- ----------------------------- ----------------- ----------- ----------------------------------------------------------- --- ------------- ------------------- ----------------------------- 
85     eltwise_85 (Eltwise, ADD)                                                   [b:1,h:7,h:7,w:7,c:48]                                2,352                                                   conv2d_75   |                                   eltwise_integer/sum_oi8[87]   
                                                                                                                                                                                                 conv2d_84   | 
------ --------------------------------------------------------------------------- ----------------------------- ----------------- ----------- ----------------------------------------------------------- --- ------------- ------------------- ----------------------------- 
86     conv2d_86 (Conv2D, CONV_2D)                                                 [b:1,h:7,h:7,w:7,c:288]       14,112/14,976         677,664                                                  eltwise_85   |                                   conv2d_oi8[88]                
       nl_86_nl (Nonlinearity, CONV_2D)                                            [b:1,h:7,h:7,w:7,c:288]                              14,112                                                   conv2d_86   |               -14,112(-100.0%)    
------ --------------------------------------------------------------------------- ----------------------------- ----------------- ----------- ----------------------------------------------------------- --- ------------- ------------------- ----------------------------- 
87     conv2d_87 (Conv2D, DEPTHWISE_CONV_2D)                                       [b:1,h:7,h:7,w:7,c:288]       7,488/8,352           353,088                                                    nl_86_nl   |                                   conv2d_oi8[89]                
       nl_87_nl (Nonlinearity, DEPTHWISE_CONV_2D)                                  [b:1,h:7,h:7,w:7,c:288]                              14,112                                                   conv2d_87   |               -14,112(-100.0%)    
------ --------------------------------------------------------------------------- ----------------------------- ----------------- ----------- ----------------------------------------------------------- --- ------------- ------------------- ----------------------------- 
88     pool_88 (Pool, AVERAGE_POOL_2D)                                             [b:1,h:1,h:1,w:1,c:288]                              14,112                                                    nl_87_nl   |                                   pool_oi8[90]                  
------ --------------------------------------------------------------------------- ----------------------------- ----------------- ----------- ----------------------------------------------------------- --- ------------- ------------------- ----------------------------- 
89     conv2d_89 (Conv2D, CONV_2D)                                                 [b:1,h:1,h:1,w:1,c:72]        20,808/21,024          20,808                                                     pool_88   |                                   conv2d_oi8[91]                
       nl_89_nl (Nonlinearity, CONV_2D)                                            [b:1,h:1,h:1,w:1,c:72]                                   72                                                   conv2d_89   |               -72(-100.0%)        
------ --------------------------------------------------------------------------- ----------------------------- ----------------- ----------- ----------------------------------------------------------- --- ------------- ------------------- ----------------------------- 
90     conv2d_90 (Conv2D, CONV_2D)                                                 [b:1,h:1,h:1,w:1,c:288]       21,024/21,888          21,024                                                    nl_89_nl   |                                   conv2d_oi8[92]                
------ --------------------------------------------------------------------------- ----------------------------- ----------------- ----------- ----------------------------------------------------------- --- ------------- ------------------- ----------------------------- 
91     mobilenet_v3_alpha_0_5_conv2d_11_clip_by_value_Minimum_y8 (Placeholder, )   []                            1/1                                                                                         | +3(+300.0%)   +288(+100.0%)       eltwise_integer/min_oi8[93]   
       eltwise_91 (Eltwise, MINIMUM)                                               [b:1,h:1,h:1,w:1,c:288]                                 288                                                   conv2d_90   |               -288(-100.0%)       
                                                                                                                                                 mobilenet_v3_alpha_0_5_conv2d_11_clip_by_value_Minimum_y8   | 
------ --------------------------------------------------------------------------- ----------------------------- ----------------- ----------- ----------------------------------------------------------- --- ------------- ------------------- ----------------------------- 
92     nl_92 (Nonlinearity, RELU)                                                  [b:1,h:1,h:1,w:1,c:288]                                 288                                                  eltwise_91   |                                   nl_oi8[94]                    
------ --------------------------------------------------------------------------- ----------------------------- ----------------- ----------- ----------------------------------------------------------- --- ------------- ------------------- ----------------------------- 
93     eltwise_93 (Eltwise, MUL)                                                   [b:1,h:7,h:7,w:7,c:288]                              14,112                                                    nl_87_nl   |                                   eltwise_integer/mul_oi8[95]   
                                                                                                                                                                                                     nl_92   | 
------ --------------------------------------------------------------------------- ----------------------------- ----------------- ----------- ----------------------------------------------------------- --- ------------- ------------------- ----------------------------- 
94     conv2d_94 (Conv2D, CONV_2D)                                                 [b:1,h:7,h:7,w:7,c:48]        13,872/14,016         677,424                                                  eltwise_93   |                                   conv2d_oi8[96]                
------ --------------------------------------------------------------------------- ----------------------------- ----------------- ----------- ----------------------------------------------------------- --- ------------- ------------------- ----------------------------- 
95     eltwise_95 (Eltwise, ADD)                                                   [b:1,h:7,h:7,w:7,c:48]                                2,352                                                  eltwise_85   |                                   eltwise_integer/sum_oi8[97]   
                                                                                                                                                                                                 conv2d_94   | 
------ --------------------------------------------------------------------------- ----------------------------- ----------------- ----------- ----------------------------------------------------------- --- ------------- ------------------- ----------------------------- 
96     conv2d_96 (Conv2D, CONV_2D)                                                 [b:1,h:7,h:7,w:7,c:288]       14,112/14,976         677,664                                                  eltwise_95   |                                   conv2d_oi8[98]                
       nl_96_nl (Nonlinearity, CONV_2D)                                            [b:1,h:7,h:7,w:7,c:288]                              14,112                                                   conv2d_96   |               -14,112(-100.0%)    
------ --------------------------------------------------------------------------- ----------------------------- ----------------- ----------- ----------------------------------------------------------- --- ------------- ------------------- ----------------------------- 
97     pool_97 (Pool, MEAN)                                                        [b:1,h:1,h:1,w:1,c:288]                              14,112                                                    nl_96_nl   |                                   pool_oi8[99]                  
------ --------------------------------------------------------------------------- ----------------------------- ----------------- ----------- ----------------------------------------------------------- --- ------------- ------------------- ----------------------------- 
98     conv2d_98 (Conv2D, CONV_2D)                                                 [b:1,h:1,h:1,w:1,c:1280]      369,920/373,760       369,920                                                     pool_97   |                                   conv2d_oi8[100]               
       nl_98_nl (Nonlinearity, CONV_2D)                                            [b:1,h:1,h:1,w:1,c:1280]                              1,280                                                   conv2d_98   |               -1,280(-100.0%)     
------ --------------------------------------------------------------------------- ----------------------------- ----------------- ----------- ----------------------------------------------------------- --- ------------- ------------------- ----------------------------- 
99     conv2d_99 (Conv2D, CONV_2D)                                                 [b:1,h:1,h:1,w:1,c:39]        49,959/50,076          49,959                                                    nl_98_nl   |                                   conv2d_oi8[101]               
------ --------------------------------------------------------------------------- ----------------------------- ----------------- ----------- ----------------------------------------------------------- --- ------------- ------------------- ----------------------------- 
100    reshape_100 (Reshape, RESHAPE)                                              [b:1,c:39]                                                                                                    conv2d_99   |                                   
------ --------------------------------------------------------------------------- ----------------------------- ----------------- ----------- ----------------------------------------------------------- --- ------------- ------------------- ----------------------------- 
101    nl_101 (Nonlinearity, SOFTMAX)                                              [b:1,c:39]                                              585                                                 reshape_100   |                                   nl_oi8[102]                   
------ --------------------------------------------------------------------------- ----------------------------- ----------------- ----------- ----------------------------------------------------------- --- ------------- ------------------- ----------------------------- 
102    conversion_102 (Conversion, DEQUANTIZE)                                     [b:1,c:39]                                               78                                                      nl_101   |                                   converter_of32[o][103]        
------ --------------------------------------------------------------------------- ----------------------------- ----------------- ----------- ----------------------------------------------------------- --- ------------- ------------------- ----------------------------- 
model/c-model: macc=20,935,878/20,176,174 -759,704(-3.6%) weights=687,221/687,248 +27(+0.0%) activations=--/156,600 io=--/0



Generated C-graph summary
------------------------------------------------------------------------------------------------------------------------
model name            : quantized_model
c-name                : network
c-node #              : 104
c-array #             : 310
activations size      : 156600 (1 segment)
weights size          : 687248 (1 segment)
macc                  : 20176174
inputs                : ['serving_default_input_10_output']
outputs               : ['conversion_102_output']

C-Arrays (310)
------ ----------------------------------------------------------- --------------- ------------------------- --------------- --------------- --------- 
c_id   name (*_array)                                              item/size       domain/mem-pool           c-type          fmt             comment   
------ ----------------------------------------------------------- --------------- ------------------------- --------------- --------------- --------- 
0      conv2d_70_scratch0                                          936/936         activations/**default**   int8_t          s8                        
1      conv2d_71_scratch0                                          1584/1584       activations/**default**   int8_t          s8                        
2      conv2d_75_scratch0                                          1056/1056       activations/**default**   int8_t          s8                        
3      conv2d_76_scratch0                                          3072/3072       activations/**default**   int8_t          s8                        
4      conv2d_76_scratch1                                          14112/14112     activations/**default**   int8_t          sa8                       
5      conv2d_77_scratch0                                          24481/24481     activations/**default**   int8_t          s8                        
6      conv2d_77_scratch1                                          14112/14112     activations/**default**   int8_t          sa8                       
7      conv2d_79_scratch0                                          1872/1872       activations/**default**   int8_t          s8                        
8      conv2d_79_scratch1                                          72/72           activations/**default**   int8_t          sa8                       
9      conv2d_80_scratch0                                          3168/3168       activations/**default**   int8_t          s8                        
10     conv2d_84_scratch0                                          1632/1632       activations/**default**   int8_t          s8                        
11     conv2d_86_scratch0                                          3072/3072       activations/**default**   int8_t          s8                        
12     conv2d_86_scratch1                                          14112/14112     activations/**default**   int8_t          sa8                       
13     conv2d_87_scratch0                                          24481/24481     activations/**default**   int8_t          s8                        
14     conv2d_87_scratch1                                          14112/14112     activations/**default**   int8_t          sa8                       
15     conv2d_89_scratch0                                          1872/1872       activations/**default**   int8_t          s8                        
16     conv2d_89_scratch1                                          72/72           activations/**default**   int8_t          sa8                       
17     conv2d_90_scratch0                                          3168/3168       activations/**default**   int8_t          s8                        
18     conv2d_94_scratch0                                          1632/1632       activations/**default**   int8_t          s8                        
19     conv2d_96_scratch0                                          3072/3072       activations/**default**   int8_t          s8                        
20     conv2d_96_scratch1                                          14112/14112     activations/**default**   int8_t          sa8                       
21     conv2d_98_scratch0                                          13952/13952     activations/**default**   int8_t          s8                        
22     conv2d_98_scratch1                                          1280/1280       activations/**default**   int8_t          sa8                       
23     conv2d_99_scratch0                                          5510/5510       activations/**default**   int8_t          s8                        
24     nl_101_scratch0                                             39/156          activations/**default**   int32_t         s32                       
25     serving_default_input_10_output                             150528/150528   activations/**default**   uint8_t         ua8             /input    
26     conversion_0_output                                         150528/150529   activations/**default**   int8_t          sa8                       
27     conv2d_1_output                                             100352/100352   activations/**default**   int8_t          sa8                       
28     conv2d_2_output                                             100352/100352   activations/**default**   int8_t          sa8                       
29     conv2d_3_pad_before_output                                  103968/103968   activations/**default**   int8_t          sa8                       
30     conv2d_3_output                                             25088/25088     activations/**default**   int8_t          sa8                       
31     pool_4_output                                               8/8             activations/**default**   int8_t          sa8                       
32     conv2d_5_output                                             2/2             activations/**default**   int8_t          sa8                       
33     conv2d_6_output                                             8/8             activations/**default**   int8_t          sa8                       
34     eltwise_7_output                                            8/8             activations/**default**   int8_t          sa8                       
35     eltwise_9_output                                            25088/25088     activations/**default**   int8_t          sa8                       
36     conv2d_10_output                                            25088/25088     activations/**default**   int8_t          sa8                       
37     conv2d_11_output                                            125440/125440   activations/**default**   int8_t          sa8                       
38     conv2d_12_pad_before_output                                 134560/134560   activations/**default**   int8_t          sa8                       
39     conv2d_12_output                                            31360/31360     activations/**default**   int8_t          sa8                       
40     conv2d_13_output                                            12544/12544     activations/**default**   int8_t          sa8                       
41     conv2d_14_output                                            37632/37632     activations/**default**   int8_t          sa8                       
42     conv2d_15_pad_before_output                                 43200/43200     activations/**default**   int8_t          sa8                       
43     conv2d_15_output                                            37632/37632     activations/**default**   int8_t          sa8                       
44     conv2d_16_output                                            12544/12544     activations/**default**   int8_t          sa8                       
45     eltwise_17_output                                           12544/12544     activations/**default**   int8_t          sa8                       
46     conv2d_18_output                                            37632/37632     activations/**default**   int8_t          sa8                       
47     conv2d_19_output                                            9408/9408       activations/**default**   int8_t          sa8                       
48     pool_20_output                                              48/48           activations/**default**   int8_t          sa8                       
49     conv2d_21_output                                            12/12           activations/**default**   int8_t          sa8                       
50     conv2d_22_output                                            48/48           activations/**default**   int8_t          sa8                       
51     eltwise_23_output                                           48/48           activations/**default**   int8_t          sa8                       
52     nl_24_output                                                48/48           activations/**default**   int8_t          sa8                       
53     eltwise_25_output                                           9408/9408       activations/**default**   int8_t          sa8                       
54     conv2d_26_output                                            4704/4704       activations/**default**   int8_t          sa8                       
55     conv2d_27_output                                            23520/23520     activations/**default**   int8_t          sa8                       
56     conv2d_28_output                                            23520/23520     activations/**default**   int8_t          sa8                       
57     pool_29_output                                              120/120         activations/**default**   int8_t          sa8                       
58     conv2d_30_output                                            30/30           activations/**default**   int8_t          sa8                       
59     conv2d_31_output                                            120/120         activations/**default**   int8_t          sa8                       
60     eltwise_32_output                                           120/120         activations/**default**   int8_t          sa8                       
61     nl_33_output                                                120/120         activations/**default**   int8_t          sa8                       
62     eltwise_34_output                                           23520/23520     activations/**default**   int8_t          sa8                       
63     conv2d_35_output                                            4704/4704       activations/**default**   int8_t          sa8                       
64     eltwise_36_output                                           4704/4704       activations/**default**   int8_t          sa8                       
65     conv2d_37_output                                            23520/23520     activations/**default**   int8_t          sa8                       
66     conv2d_38_output                                            23520/23520     activations/**default**   int8_t          sa8                       
67     pool_39_output                                              120/120         activations/**default**   int8_t          sa8                       
68     conv2d_40_output                                            30/30           activations/**default**   int8_t          sa8                       
69     conv2d_41_output                                            120/120         activations/**default**   int8_t          sa8                       
70     eltwise_42_output                                           120/120         activations/**default**   int8_t          sa8                       
71     nl_43_output                                                120/120         activations/**default**   int8_t          sa8                       
72     eltwise_44_output                                           23520/23520     activations/**default**   int8_t          sa8                       
73     conv2d_45_output                                            4704/4704       activations/**default**   int8_t          sa8                       
74     eltwise_46_output                                           4704/4704       activations/**default**   int8_t          sa8                       
75     conv2d_47_output                                            12544/12544     activations/**default**   int8_t          sa8                       
76     conv2d_48_output                                            12544/12544     activations/**default**   int8_t          sa8                       
77     pool_49_output                                              64/64           activations/**default**   int8_t          sa8                       
78     conv2d_50_output                                            16/16           activations/**default**   int8_t          sa8                       
79     conv2d_51_output                                            64/64           activations/**default**   int8_t          sa8                       
80     eltwise_52_output                                           64/64           activations/**default**   int8_t          sa8                       
81     nl_53_output                                                64/64           activations/**default**   int8_t          sa8                       
82     eltwise_54_output                                           12544/12544     activations/**default**   int8_t          sa8                       
83     conv2d_55_output                                            4704/4704       activations/**default**   int8_t          sa8                       
84     eltwise_56_output                                           4704/4704       activations/**default**   int8_t          sa8                       
85     conv2d_57_output                                            14112/14112     activations/**default**   int8_t          sa8                       
86     conv2d_58_output                                            14112/14112     activations/**default**   int8_t          sa8                       
87     pool_59_output                                              72/72           activations/**default**   int8_t          sa8                       
88     conv2d_60_output                                            18/18           activations/**default**   int8_t          sa8                       
89     conv2d_61_output                                            72/72           activations/**default**   int8_t          sa8                       
90     eltwise_62_output                                           72/72           activations/**default**   int8_t          sa8                       
91     nl_63_output                                                72/72           activations/**default**   int8_t          sa8                       
92     eltwise_64_output                                           14112/14112     activations/**default**   int8_t          sa8                       
93     conv2d_65_output                                            4704/4704       activations/**default**   int8_t          sa8                       
94     eltwise_66_output                                           4704/4704       activations/**default**   int8_t          sa8                       
95     conv2d_67_output                                            28224/28224     activations/**default**   int8_t          sa8                       
96     conv2d_68_output                                            7056/7056       activations/**default**   int8_t          sa8                       
97     pool_69_output                                              144/144         activations/**default**   int8_t          sa8                       
98     conv2d_70_output                                            36/36           activations/**default**   int8_t          sa8                       
99     conv2d_71_output                                            144/144         activations/**default**   int8_t          sa8                       
100    eltwise_72_output                                           144/144         activations/**default**   int8_t          sa8                       
101    nl_73_output                                                144/144         activations/**default**   int8_t          sa8                       
102    eltwise_74_output                                           7056/7056       activations/**default**   int8_t          sa8                       
103    conv2d_75_output                                            2352/2352       activations/**default**   int8_t          sa8                       
104    conv2d_76_output                                            14112/14112     activations/**default**   int8_t          sa8                       
105    conv2d_77_output                                            14112/14112     activations/**default**   int8_t          sa8                       
106    pool_78_output                                              288/288         activations/**default**   int8_t          sa8                       
107    conv2d_79_output                                            72/72           activations/**default**   int8_t          sa8                       
108    conv2d_80_output                                            288/288         activations/**default**   int8_t          sa8                       
109    eltwise_81_output                                           288/288         activations/**default**   int8_t          sa8                       
110    nl_82_output                                                288/288         activations/**default**   int8_t          sa8                       
111    eltwise_83_output                                           14112/14112     activations/**default**   int8_t          sa8                       
112    conv2d_84_output                                            2352/2352       activations/**default**   int8_t          sa8                       
113    eltwise_85_output                                           2352/2352       activations/**default**   int8_t          sa8                       
114    conv2d_86_output                                            14112/14112     activations/**default**   int8_t          sa8                       
115    conv2d_87_output                                            14112/14112     activations/**default**   int8_t          sa8                       
116    pool_88_output                                              288/288         activations/**default**   int8_t          sa8                       
117    conv2d_89_output                                            72/72           activations/**default**   int8_t          sa8                       
118    conv2d_90_output                                            288/288         activations/**default**   int8_t          sa8                       
119    eltwise_91_output                                           288/288         activations/**default**   int8_t          sa8                       
120    nl_92_output                                                288/288         activations/**default**   int8_t          sa8                       
121    eltwise_93_output                                           14112/14112     activations/**default**   int8_t          sa8                       
122    conv2d_94_output                                            2352/2352       activations/**default**   int8_t          sa8                       
123    eltwise_95_output                                           2352/2352       activations/**default**   int8_t          sa8                       
124    conv2d_96_output                                            14112/14112     activations/**default**   int8_t          sa8                       
125    pool_97_output                                              288/288         activations/**default**   int8_t          sa8                       
126    conv2d_98_output                                            1280/1280       activations/**default**   int8_t          sa8                       
127    conv2d_99_output                                            39/39           activations/**default**   int8_t          sa8                       
128    nl_101_output                                               39/39           activations/**default**   int8_t          sa8                       
129    conversion_102_output                                       39/156          activations/**default**   float           float32         /output   
130    mobilenet_v3_alpha_0_5_conv2d_11_clip_by_value_Minimum_y8   1/4             weights/weights           const int8_t    sa8                       
131    mobilenet_v3_alpha_0_5_conv2d_11_clip_by_value_Minimum_y7   1/4             weights/weights           const int8_t    sa8                       
132    mobilenet_v3_alpha_0_5_conv2d_11_clip_by_value_Minimum_y6   1/4             weights/weights           const int8_t    sa8                       
133    mobilenet_v3_alpha_0_5_conv2d_11_clip_by_value_Minimum_y5   1/4             weights/weights           const int8_t    sa8                       
134    mobilenet_v3_alpha_0_5_conv2d_11_clip_by_value_Minimum_y4   1/4             weights/weights           const int8_t    sa8                       
135    mobilenet_v3_alpha_0_5_conv2d_11_clip_by_value_Minimum_y3   1/4             weights/weights           const int8_t    sa8                       
136    mobilenet_v3_alpha_0_5_conv2d_11_clip_by_value_Minimum_y2   1/4             weights/weights           const int8_t    sa8                       
137    mobilenet_v3_alpha_0_5_conv2d_11_clip_by_value_Minimum_y1   1/4             weights/weights           const int8_t    sa8                       
138    mobilenet_v3_alpha_0_5_conv2d_11_clip_by_value_Minimum_y    1/4             weights/weights           const int8_t    sa8                       
139    conv2d_1_weights                                            216/216         weights/weights           const int8_t    ss8/ch(8)                 
140    conv2d_1_bias                                               8/32            weights/weights           const int32_t   ss32/ch(8)                
141    conv2d_2_weights                                            64/64           weights/weights           const int8_t    ss8/ch(8)                 
142    conv2d_2_bias                                               8/32            weights/weights           const int32_t   ss32/ch(8)                
143    conv2d_3_weights                                            72/72           weights/weights           const int8_t    ss8/ch(8)                 
144    conv2d_3_bias                                               8/32            weights/weights           const int32_t   ss32/ch(8)                
145    conv2d_5_weights                                            16/16           weights/weights           const int8_t    ss8/ch(2)                 
146    conv2d_5_bias                                               2/8             weights/weights           const int32_t   ss32/ch(2)                
147    conv2d_6_weights                                            16/16           weights/weights           const int8_t    ss8/ch(8)                 
148    conv2d_6_bias                                               8/32            weights/weights           const int32_t   ss32/ch(8)                
149    conv2d_10_weights                                           64/64           weights/weights           const int8_t    ss8/ch(8)                 
150    conv2d_10_bias                                              8/32            weights/weights           const int32_t   ss32/ch(8)                
151    conv2d_11_weights                                           320/320         weights/weights           const int8_t    ss8/ch(40)                
152    conv2d_11_bias                                              40/160          weights/weights           const int32_t   ss32/ch(40)               
153    conv2d_12_weights                                           360/360         weights/weights           const int8_t    ss8/ch(40)                
154    conv2d_12_bias                                              40/160          weights/weights           const int32_t   ss32/ch(40)               
155    conv2d_13_weights                                           640/640         weights/weights           const int8_t    ss8/ch(16)                
156    conv2d_13_bias                                              16/64           weights/weights           const int32_t   ss32/ch(16)               
157    conv2d_14_weights                                           768/768         weights/weights           const int8_t    ss8/ch(48)                
158    conv2d_14_bias                                              48/192          weights/weights           const int32_t   ss32/ch(48)               
159    conv2d_15_weights                                           432/432         weights/weights           const int8_t    ss8/ch(48)                
160    conv2d_15_bias                                              48/192          weights/weights           const int32_t   ss32/ch(48)               
161    conv2d_16_weights                                           768/768         weights/weights           const int8_t    ss8/ch(16)                
162    conv2d_16_bias                                              16/64           weights/weights           const int32_t   ss32/ch(16)               
163    conv2d_18_weights                                           768/768         weights/weights           const int8_t    ss8/ch(48)                
164    conv2d_18_bias                                              48/192          weights/weights           const int32_t   ss32/ch(48)               
165    conv2d_19_weights                                           1200/1200       weights/weights           const int8_t    ss8/ch(48)                
166    conv2d_19_bias                                              48/192          weights/weights           const int32_t   ss32/ch(48)               
167    conv2d_21_weights                                           576/576         weights/weights           const int8_t    ss8/ch(12)                
168    conv2d_21_bias                                              12/48           weights/weights           const int32_t   ss32/ch(12)               
169    conv2d_22_weights                                           576/576         weights/weights           const int8_t    ss8/ch(48)                
170    conv2d_22_bias                                              48/192          weights/weights           const int32_t   ss32/ch(48)               
171    conv2d_26_weights                                           1152/1152       weights/weights           const int8_t    ss8/ch(24)                
172    conv2d_26_bias                                              24/96           weights/weights           const int32_t   ss32/ch(24)               
173    conv2d_27_weights                                           2880/2880       weights/weights           const int8_t    ss8/ch(120)               
174    conv2d_27_bias                                              120/480         weights/weights           const int32_t   ss32/ch(120)              
175    conv2d_28_weights                                           3000/3000       weights/weights           const int8_t    ss8/ch(120)               
176    conv2d_28_bias                                              120/480         weights/weights           const int32_t   ss32/ch(120)              
177    conv2d_30_weights                                           3600/3600       weights/weights           const int8_t    ss8/ch(30)                
178    conv2d_30_bias                                              30/120          weights/weights           const int32_t   ss32/ch(30)               
179    conv2d_31_weights                                           3600/3600       weights/weights           const int8_t    ss8/ch(120)               
180    conv2d_31_bias                                              120/480         weights/weights           const int32_t   ss32/ch(120)              
181    conv2d_35_weights                                           2880/2880       weights/weights           const int8_t    ss8/ch(24)                
182    conv2d_35_bias                                              24/96           weights/weights           const int32_t   ss32/ch(24)               
183    conv2d_37_weights                                           2880/2880       weights/weights           const int8_t    ss8/ch(120)               
184    conv2d_37_bias                                              120/480         weights/weights           const int32_t   ss32/ch(120)              
185    conv2d_38_weights                                           3000/3000       weights/weights           const int8_t    ss8/ch(120)               
186    conv2d_38_bias                                              120/480         weights/weights           const int32_t   ss32/ch(120)              
187    conv2d_40_weights                                           3600/3600       weights/weights           const int8_t    ss8/ch(30)                
188    conv2d_40_bias                                              30/120          weights/weights           const int32_t   ss32/ch(30)               
189    conv2d_41_weights                                           3600/3600       weights/weights           const int8_t    ss8/ch(120)               
190    conv2d_41_bias                                              120/480         weights/weights           const int32_t   ss32/ch(120)              
191    conv2d_45_weights                                           2880/2880       weights/weights           const int8_t    ss8/ch(24)                
192    conv2d_45_bias                                              24/96           weights/weights           const int32_t   ss32/ch(24)               
193    conv2d_47_weights                                           1536/1536       weights/weights           const int8_t    ss8/ch(64)                
194    conv2d_47_bias                                              64/256          weights/weights           const int32_t   ss32/ch(64)               
195    conv2d_48_weights                                           1600/1600       weights/weights           const int8_t    ss8/ch(64)                
196    conv2d_48_bias                                              64/256          weights/weights           const int32_t   ss32/ch(64)               
197    conv2d_50_weights                                           1024/1024       weights/weights           const int8_t    ss8/ch(16)                
198    conv2d_50_bias                                              16/64           weights/weights           const int32_t   ss32/ch(16)               
199    conv2d_51_weights                                           1024/1024       weights/weights           const int8_t    ss8/ch(64)                
200    conv2d_51_bias                                              64/256          weights/weights           const int32_t   ss32/ch(64)               
201    conv2d_55_weights                                           1536/1536       weights/weights           const int8_t    ss8/ch(24)                
202    conv2d_55_bias                                              24/96           weights/weights           const int32_t   ss32/ch(24)               
203    conv2d_57_weights                                           1728/1728       weights/weights           const int8_t    ss8/ch(72)                
204    conv2d_57_bias                                              72/288          weights/weights           const int32_t   ss32/ch(72)               
205    conv2d_58_weights                                           1800/1800       weights/weights           const int8_t    ss8/ch(72)                
206    conv2d_58_bias                                              72/288          weights/weights           const int32_t   ss32/ch(72)               
207    conv2d_60_weights                                           1296/1296       weights/weights           const int8_t    ss8/ch(18)                
208    conv2d_60_bias                                              18/72           weights/weights           const int32_t   ss32/ch(18)               
209    conv2d_61_weights                                           1296/1296       weights/weights           const int8_t    ss8/ch(72)                
210    conv2d_61_bias                                              72/288          weights/weights           const int32_t   ss32/ch(72)               
211    conv2d_65_weights                                           1728/1728       weights/weights           const int8_t    ss8/ch(24)                
212    conv2d_65_bias                                              24/96           weights/weights           const int32_t   ss32/ch(24)               
213    conv2d_67_weights                                           3456/3456       weights/weights           const int8_t    ss8/ch(144)               
214    conv2d_67_bias                                              144/576         weights/weights           const int32_t   ss32/ch(144)              
215    conv2d_68_weights                                           3600/3600       weights/weights           const int8_t    ss8/ch(144)               
216    conv2d_68_bias                                              144/576         weights/weights           const int32_t   ss32/ch(144)              
217    conv2d_70_weights                                           5184/5184       weights/weights           const int8_t    ss8/ch(36)                
218    conv2d_70_bias                                              36/144          weights/weights           const int32_t   ss32/ch(36)               
219    conv2d_71_weights                                           5184/5184       weights/weights           const int8_t    ss8/ch(144)               
220    conv2d_71_bias                                              144/576         weights/weights           const int32_t   ss32/ch(144)              
221    conv2d_75_weights                                           6912/6912       weights/weights           const int8_t    ss8/ch(48)                
222    conv2d_75_bias                                              48/192          weights/weights           const int32_t   ss32/ch(48)               
223    conv2d_76_weights                                           13824/13824     weights/weights           const int8_t    ss8/ch(288)               
224    conv2d_76_bias                                              288/1152        weights/weights           const int32_t   ss32/ch(288)              
225    conv2d_77_weights                                           7200/7200       weights/weights           const int8_t    ss8/ch(288)               
226    conv2d_77_bias                                              288/1152        weights/weights           const int32_t   ss32/ch(288)              
227    conv2d_79_weights                                           20736/20736     weights/weights           const int8_t    ss8/ch(72)                
228    conv2d_79_bias                                              72/288          weights/weights           const int32_t   ss32/ch(72)               
229    conv2d_80_weights                                           20736/20736     weights/weights           const int8_t    ss8/ch(288)               
230    conv2d_80_bias                                              288/1152        weights/weights           const int32_t   ss32/ch(288)              
231    conv2d_84_weights                                           13824/13824     weights/weights           const int8_t    ss8/ch(48)                
232    conv2d_84_bias                                              48/192          weights/weights           const int32_t   ss32/ch(48)               
233    conv2d_86_weights                                           13824/13824     weights/weights           const int8_t    ss8/ch(288)               
234    conv2d_86_bias                                              288/1152        weights/weights           const int32_t   ss32/ch(288)              
235    conv2d_87_weights                                           7200/7200       weights/weights           const int8_t    ss8/ch(288)               
236    conv2d_87_bias                                              288/1152        weights/weights           const int32_t   ss32/ch(288)              
237    conv2d_89_weights                                           20736/20736     weights/weights           const int8_t    ss8/ch(72)                
238    conv2d_89_bias                                              72/288          weights/weights           const int32_t   ss32/ch(72)               
239    conv2d_90_weights                                           20736/20736     weights/weights           const int8_t    ss8/ch(288)               
240    conv2d_90_bias                                              288/1152        weights/weights           const int32_t   ss32/ch(288)              
241    conv2d_94_weights                                           13824/13824     weights/weights           const int8_t    ss8/ch(48)                
242    conv2d_94_bias                                              48/192          weights/weights           const int32_t   ss32/ch(48)               
243    conv2d_96_weights                                           13824/13824     weights/weights           const int8_t    ss8/ch(288)               
244    conv2d_96_bias                                              288/1152        weights/weights           const int32_t   ss32/ch(288)              
245    conv2d_98_weights                                           368640/368640   weights/weights           const int8_t    ss8/ch(1280)              
246    conv2d_98_bias                                              1280/5120       weights/weights           const int32_t   ss32/ch(1280)             
247    conv2d_99_weights                                           49920/49920     weights/weights           const int8_t    ss8/ch(39)                
248    conv2d_99_bias                                              39/156          weights/weights           const int32_t   ss32/ch(39)               
249    conv2d_1_scratch0                                           652/652         activations/**default**   int8_t          s8                        
250    conv2d_1_scratch1                                           100352/100352   activations/**default**   int8_t          sa8                       
251    conv2d_2_scratch0                                           112/112         activations/**default**   int8_t          s8                        
252    conv2d_2_scratch1                                           100352/100352   activations/**default**   int8_t          sa8                       
253    conv2d_3_scratch0                                           297/297         activations/**default**   int8_t          s8                        
254    conv2d_3_scratch1                                           25088/25088     activations/**default**   int8_t          sa8                       
255    conv2d_5_scratch0                                           52/52           activations/**default**   int8_t          s8                        
256    conv2d_6_scratch0                                           88/88           activations/**default**   int8_t          s8                        
257    conv2d_10_scratch0                                          112/112         activations/**default**   int8_t          s8                        
258    conv2d_11_scratch0                                          432/432         activations/**default**   int8_t          s8                        
259    conv2d_11_scratch1                                          125440/125440   activations/**default**   int8_t          sa8                       
260    conv2d_12_scratch0                                          1481/1481       activations/**default**   int8_t          s8                        
261    conv2d_12_scratch1                                          31360/31360     activations/**default**   int8_t          sa8                       
262    conv2d_13_scratch0                                          320/320         activations/**default**   int8_t          s8                        
263    conv2d_14_scratch0                                          544/544         activations/**default**   int8_t          s8                        
264    conv2d_14_scratch1                                          37632/37632     activations/**default**   int8_t          sa8                       
265    conv2d_15_scratch0                                          1777/1777       activations/**default**   int8_t          s8                        
266    conv2d_15_scratch1                                          37632/37632     activations/**default**   int8_t          sa8                       
267    conv2d_16_scratch0                                          352/352         activations/**default**   int8_t          s8                        
268    conv2d_18_scratch0                                          544/544         activations/**default**   int8_t          s8                        
269    conv2d_18_scratch1                                          37632/37632     activations/**default**   int8_t          sa8                       
270    conv2d_19_scratch0                                          4081/4081       activations/**default**   int8_t          s8                        
271    conv2d_19_scratch1                                          9408/9408       activations/**default**   int8_t          sa8                       
272    conv2d_21_scratch0                                          312/312         activations/**default**   int8_t          s8                        
273    conv2d_21_scratch1                                          12/12           activations/**default**   int8_t          sa8                       
274    conv2d_22_scratch0                                          528/528         activations/**default**   int8_t          s8                        
275    conv2d_26_scratch0                                          432/432         activations/**default**   int8_t          s8                        
276    conv2d_27_scratch0                                          1296/1296       activations/**default**   int8_t          s8                        
277    conv2d_27_scratch1                                          23520/23520     activations/**default**   int8_t          sa8                       
278    conv2d_28_scratch0                                          10201/10201     activations/**default**   int8_t          s8                        
279    conv2d_28_scratch1                                          23520/23520     activations/**default**   int8_t          sa8                       
280    conv2d_30_scratch0                                          780/780         activations/**default**   int8_t          s8                        
281    conv2d_30_scratch1                                          30/30           activations/**default**   int8_t          sa8                       
282    conv2d_31_scratch0                                          1320/1320       activations/**default**   int8_t          s8                        
283    conv2d_35_scratch0                                          720/720         activations/**default**   int8_t          s8                        
284    conv2d_37_scratch0                                          1296/1296       activations/**default**   int8_t          s8                        
285    conv2d_37_scratch1                                          23520/23520     activations/**default**   int8_t          sa8                       
286    conv2d_38_scratch0                                          10201/10201     activations/**default**   int8_t          s8                        
287    conv2d_38_scratch1                                          23520/23520     activations/**default**   int8_t          sa8                       
288    conv2d_40_scratch0                                          780/780         activations/**default**   int8_t          s8                        
289    conv2d_40_scratch1                                          30/30           activations/**default**   int8_t          sa8                       
290    conv2d_41_scratch0                                          1320/1320       activations/**default**   int8_t          s8                        
291    conv2d_45_scratch0                                          720/720         activations/**default**   int8_t          s8                        
292    conv2d_47_scratch0                                          736/736         activations/**default**   int8_t          s8                        
293    conv2d_47_scratch1                                          12544/12544     activations/**default**   int8_t          sa8                       
294    conv2d_48_scratch0                                          5441/5441       activations/**default**   int8_t          s8                        
295    conv2d_48_scratch1                                          12544/12544     activations/**default**   int8_t          sa8                       
296    conv2d_50_scratch0                                          416/416         activations/**default**   int8_t          s8                        
297    conv2d_51_scratch0                                          704/704         activations/**default**   int8_t          s8                        
298    conv2d_55_scratch0                                          496/496         activations/**default**   int8_t          s8                        
299    conv2d_57_scratch0                                          816/816         activations/**default**   int8_t          s8                        
300    conv2d_57_scratch1                                          14112/14112     activations/**default**   int8_t          sa8                       
301    conv2d_58_scratch0                                          6121/6121       activations/**default**   int8_t          s8                        
302    conv2d_58_scratch1                                          14112/14112     activations/**default**   int8_t          sa8                       
303    conv2d_60_scratch0                                          468/468         activations/**default**   int8_t          s8                        
304    conv2d_61_scratch0                                          792/792         activations/**default**   int8_t          s8                        
305    conv2d_65_scratch0                                          528/528         activations/**default**   int8_t          s8                        
306    conv2d_67_scratch0                                          1536/1536       activations/**default**   int8_t          s8                        
307    conv2d_67_scratch1                                          28224/28224     activations/**default**   int8_t          sa8                       
308    conv2d_68_scratch0                                          12241/12241     activations/**default**   int8_t          s8                        
309    conv2d_68_scratch1                                          7056/7056       activations/**default**   int8_t          sa8                       
------ ----------------------------------------------------------- --------------- ------------------------- --------------- --------------- --------- 

C-Layers (104)
------ ---------------------- ----- ---------------------- --------- -------- -------------------------------------------------------------- ---------------------- 
c_id   name (*_layer)         id    layer_type             macc      rom      tensors                                                        shape (array id)       
------ ---------------------- ----- ---------------------- --------- -------- -------------------------------------------------------------- ---------------------- 
0      conversion_0           0     converter              301056    0        I: serving_default_input_10_output                             (1,224,224,3) (25)     
                                                                              O: conversion_0_output                                         (1,224,224,3) (26)     
------ ---------------------- ----- ---------------------- --------- -------- -------------------------------------------------------------- ---------------------- 
1      conv2d_1               1     optimized_conv2d       2709512   248      I: conversion_0_output                                         (1,224,224,3) (26)     
                                                                              S: conv2d_1_scratch0                                                                  
                                                                              S: conv2d_1_scratch1                                                                  
                                                                              W: conv2d_1_weights                                            (3,3,3,8) (139)        
                                                                              W: conv2d_1_bias                                               (8,) (140)             
                                                                              O: conv2d_1_output                                             (1,112,112,8) (27)     
------ ---------------------- ----- ---------------------- --------- -------- -------------------------------------------------------------- ---------------------- 
2      conv2d_2               2     conv2d                 802824    96       I: conv2d_1_output                                             (1,112,112,8) (27)     
                                                                              S: conv2d_2_scratch0                                                                  
                                                                              S: conv2d_2_scratch1                                                                  
                                                                              W: conv2d_2_weights                                            (8,1,1,8) (141)        
                                                                              W: conv2d_2_bias                                               (8,) (142)             
                                                                              O: conv2d_2_output                                             (1,112,112,8) (28)     
------ ---------------------- ----- ---------------------- --------- -------- -------------------------------------------------------------- ---------------------- 
3      conv2d_3_pad_before    3     pad                    0         0        I: conv2d_2_output                                             (1,112,112,8) (28)     
                                                                              O: conv2d_3_pad_before_output                                  (1,114,114,8) (29)     
------ ---------------------- ----- ---------------------- --------- -------- -------------------------------------------------------------- ---------------------- 
4      conv2d_3               3     conv2d                 225800    104      I: conv2d_3_pad_before_output                                  (1,114,114,8) (29)     
                                                                              S: conv2d_3_scratch0                                                                  
                                                                              S: conv2d_3_scratch1                                                                  
                                                                              W: conv2d_3_weights                                            (8,3,3,1) (143)        
                                                                              W: conv2d_3_bias                                               (8,) (144)             
                                                                              O: conv2d_3_output                                             (1,56,56,8) (30)       
------ ---------------------- ----- ---------------------- --------- -------- -------------------------------------------------------------- ---------------------- 
5      pool_4                 4     pool                   25088     0        I: conv2d_3_output                                             (1,56,56,8) (30)       
                                                                              O: pool_4_output                                               (1,1,1,8) (31)         
------ ---------------------- ----- ---------------------- --------- -------- -------------------------------------------------------------- ---------------------- 
6      conv2d_5               5     conv2d                 18        24       I: pool_4_output                                               (1,1,1,8) (31)         
                                                                              S: conv2d_5_scratch0                                                                  
                                                                              W: conv2d_5_weights                                            (8,1,1,2) (145)        
                                                                              W: conv2d_5_bias                                               (2,) (146)             
                                                                              O: conv2d_5_output                                             (1,1,1,2) (32)         
------ ---------------------- ----- ---------------------- --------- -------- -------------------------------------------------------------- ---------------------- 
7      conv2d_6               6     conv2d                 24        48       I: conv2d_5_output                                             (1,1,1,2) (32)         
                                                                              S: conv2d_6_scratch0                                                                  
                                                                              W: conv2d_6_weights                                            (2,1,1,8) (147)        
                                                                              W: conv2d_6_bias                                               (8,) (148)             
                                                                              O: conv2d_6_output                                             (1,1,1,8) (33)         
------ ---------------------- ----- ---------------------- --------- -------- -------------------------------------------------------------- ---------------------- 
8      eltwise_7              7     eltwise_integer/min    8         4        I: conv2d_6_output                                             (1,1,1,8) (33)         
                                                                              I: mobilenet_v3_alpha_0_5_conv2d_11_clip_by_value_Minimum_y    (1,1,1) (138)          
                                                                              O: eltwise_7_output                                            (1,1,1,8) (34)         
------ ---------------------- ----- ---------------------- --------- -------- -------------------------------------------------------------- ---------------------- 
9      eltwise_9              9     eltwise_integer/mul    25088     0        I: conv2d_3_output                                             (1,56,56,8) (30)       
                                                                              I: eltwise_7_output                                            (1,1,1,8) (34)         
                                                                              O: eltwise_9_output                                            (1,56,56,8) (35)       
------ ---------------------- ----- ---------------------- --------- -------- -------------------------------------------------------------- ---------------------- 
10     conv2d_10              10    conv2d                 200712    96       I: eltwise_9_output                                            (1,56,56,8) (35)       
                                                                              S: conv2d_10_scratch0                                                                 
                                                                              W: conv2d_10_weights                                           (8,1,1,8) (149)        
                                                                              W: conv2d_10_bias                                              (8,) (150)             
                                                                              O: conv2d_10_output                                            (1,56,56,8) (36)       
------ ---------------------- ----- ---------------------- --------- -------- -------------------------------------------------------------- ---------------------- 
11     conv2d_11              11    conv2d                 1003560   480      I: conv2d_10_output                                            (1,56,56,8) (36)       
                                                                              S: conv2d_11_scratch0                                                                 
                                                                              S: conv2d_11_scratch1                                                                 
                                                                              W: conv2d_11_weights                                           (8,1,1,40) (151)       
                                                                              W: conv2d_11_bias                                              (40,) (152)            
                                                                              O: conv2d_11_output                                            (1,56,56,40) (37)      
------ ---------------------- ----- ---------------------- --------- -------- -------------------------------------------------------------- ---------------------- 
12     conv2d_12_pad_before   12    pad                    0         0        I: conv2d_11_output                                            (1,56,56,40) (37)      
                                                                              O: conv2d_12_pad_before_output                                 (1,58,58,40) (38)      
------ ---------------------- ----- ---------------------- --------- -------- -------------------------------------------------------------- ---------------------- 
13     conv2d_12              12    conv2d                 282280    520      I: conv2d_12_pad_before_output                                 (1,58,58,40) (38)      
                                                                              S: conv2d_12_scratch0                                                                 
                                                                              S: conv2d_12_scratch1                                                                 
                                                                              W: conv2d_12_weights                                           (40,3,3,1) (153)       
                                                                              W: conv2d_12_bias                                              (40,) (154)            
                                                                              O: conv2d_12_output                                            (1,28,28,40) (39)      
------ ---------------------- ----- ---------------------- --------- -------- -------------------------------------------------------------- ---------------------- 
14     conv2d_13              13    conv2d                 501776    704      I: conv2d_12_output                                            (1,28,28,40) (39)      
                                                                              S: conv2d_13_scratch0                                                                 
                                                                              W: conv2d_13_weights                                           (40,1,1,16) (155)      
                                                                              W: conv2d_13_bias                                              (16,) (156)            
                                                                              O: conv2d_13_output                                            (1,28,28,16) (40)      
------ ---------------------- ----- ---------------------- --------- -------- -------------------------------------------------------------- ---------------------- 
15     conv2d_14              14    conv2d                 602160    960      I: conv2d_13_output                                            (1,28,28,16) (40)      
                                                                              S: conv2d_14_scratch0                                                                 
                                                                              S: conv2d_14_scratch1                                                                 
                                                                              W: conv2d_14_weights                                           (16,1,1,48) (157)      
                                                                              W: conv2d_14_bias                                              (48,) (158)            
                                                                              O: conv2d_14_output                                            (1,28,28,48) (41)      
------ ---------------------- ----- ---------------------- --------- -------- -------------------------------------------------------------- ---------------------- 
16     conv2d_15_pad_before   15    pad                    0         0        I: conv2d_14_output                                            (1,28,28,48) (41)      
                                                                              O: conv2d_15_pad_before_output                                 (1,30,30,48) (42)      
------ ---------------------- ----- ---------------------- --------- -------- -------------------------------------------------------------- ---------------------- 
17     conv2d_15              15    conv2d                 338736    624      I: conv2d_15_pad_before_output                                 (1,30,30,48) (42)      
                                                                              S: conv2d_15_scratch0                                                                 
                                                                              S: conv2d_15_scratch1                                                                 
                                                                              W: conv2d_15_weights                                           (48,3,3,1) (159)       
                                                                              W: conv2d_15_bias                                              (48,) (160)            
                                                                              O: conv2d_15_output                                            (1,28,28,48) (43)      
------ ---------------------- ----- ---------------------- --------- -------- -------------------------------------------------------------- ---------------------- 
18     conv2d_16              16    conv2d                 602128    832      I: conv2d_15_output                                            (1,28,28,48) (43)      
                                                                              S: conv2d_16_scratch0                                                                 
                                                                              W: conv2d_16_weights                                           (48,1,1,16) (161)      
                                                                              W: conv2d_16_bias                                              (16,) (162)            
                                                                              O: conv2d_16_output                                            (1,28,28,16) (44)      
------ ---------------------- ----- ---------------------- --------- -------- -------------------------------------------------------------- ---------------------- 
19     eltwise_17             17    eltwise_integer/sum    12544     0        I: conv2d_13_output                                            (1,28,28,16) (40)      
                                                                              I: conv2d_16_output                                            (1,28,28,16) (44)      
                                                                              O: eltwise_17_output                                           (1,28,28,16) (45)      
------ ---------------------- ----- ---------------------- --------- -------- -------------------------------------------------------------- ---------------------- 
20     conv2d_18              18    conv2d                 602160    960      I: eltwise_17_output                                           (1,28,28,16) (45)      
                                                                              S: conv2d_18_scratch0                                                                 
                                                                              S: conv2d_18_scratch1                                                                 
                                                                              W: conv2d_18_weights                                           (16,1,1,48) (163)      
                                                                              W: conv2d_18_bias                                              (48,) (164)            
                                                                              O: conv2d_18_output                                            (1,28,28,48) (46)      
------ ---------------------- ----- ---------------------- --------- -------- -------------------------------------------------------------- ---------------------- 
21     conv2d_19              19    conv2d                 235248    1392     I: conv2d_18_output                                            (1,28,28,48) (46)      
                                                                              S: conv2d_19_scratch0                                                                 
                                                                              S: conv2d_19_scratch1                                                                 
                                                                              W: conv2d_19_weights                                           (48,5,5,1) (165)       
                                                                              W: conv2d_19_bias                                              (48,) (166)            
                                                                              O: conv2d_19_output                                            (1,14,14,48) (47)      
------ ---------------------- ----- ---------------------- --------- -------- -------------------------------------------------------------- ---------------------- 
22     pool_20                20    pool                   9408      0        I: conv2d_19_output                                            (1,14,14,48) (47)      
                                                                              O: pool_20_output                                              (1,1,1,48) (48)        
------ ---------------------- ----- ---------------------- --------- -------- -------------------------------------------------------------- ---------------------- 
23     conv2d_21              21    conv2d                 588       624      I: pool_20_output                                              (1,1,1,48) (48)        
                                                                              S: conv2d_21_scratch0                                                                 
                                                                              S: conv2d_21_scratch1                                                                 
                                                                              W: conv2d_21_weights                                           (48,1,1,12) (167)      
                                                                              W: conv2d_21_bias                                              (12,) (168)            
                                                                              O: conv2d_21_output                                            (1,1,1,12) (49)        
------ ---------------------- ----- ---------------------- --------- -------- -------------------------------------------------------------- ---------------------- 
24     conv2d_22              22    conv2d                 624       768      I: conv2d_21_output                                            (1,1,1,12) (49)        
                                                                              S: conv2d_22_scratch0                                                                 
                                                                              W: conv2d_22_weights                                           (12,1,1,48) (169)      
                                                                              W: conv2d_22_bias                                              (48,) (170)            
                                                                              O: conv2d_22_output                                            (1,1,1,48) (50)        
------ ---------------------- ----- ---------------------- --------- -------- -------------------------------------------------------------- ---------------------- 
25     eltwise_23             23    eltwise_integer/min    48        4        I: conv2d_22_output                                            (1,1,1,48) (50)        
                                                                              I: mobilenet_v3_alpha_0_5_conv2d_11_clip_by_value_Minimum_y1   (1,1,1) (137)          
                                                                              O: eltwise_23_output                                           (1,1,1,48) (51)        
------ ---------------------- ----- ---------------------- --------- -------- -------------------------------------------------------------- ---------------------- 
26     nl_24                  24    nl                     48        0        I: eltwise_23_output                                           (1,1,1,48) (51)        
                                                                              O: nl_24_output                                                (1,1,1,48) (52)        
------ ---------------------- ----- ---------------------- --------- -------- -------------------------------------------------------------- ---------------------- 
27     eltwise_25             25    eltwise_integer/mul    9408      0        I: conv2d_19_output                                            (1,14,14,48) (47)      
                                                                              I: nl_24_output                                                (1,1,1,48) (52)        
…
------ ---------------------- ----- ---------------------- --------- -------- -------------------------------------------------------------- ---------------------- 
75     nl_73                  73    nl                     144       0        I: eltwise_72_output                                           (1,1,1,144) (100)      
                                                                              O: nl_73_output                                                (1,1,1,144) (101)      
------ ---------------------- ----- ---------------------- --------- -------- -------------------------------------------------------------- ---------------------- 
76     eltwise_74             74    eltwise_integer/mul    7056      0        I: conv2d_68_output                                            (1,7,7,144) (96)       
                                                                              I: nl_73_output                                                (1,1,1,144) (101)      
                                                                              O: eltwise_74_output                                           (1,7,7,144) (102)      
------ ---------------------- ----- ---------------------- --------- -------- -------------------------------------------------------------- ---------------------- 
77     conv2d_75              75    conv2d                 338736    7104     I: eltwise_74_output                                           (1,7,7,144) (102)      
                                                                              S: conv2d_75_scratch0                                                                 
                                                                              W: conv2d_75_weights                                           (144,1,1,48) (221)     
                                                                              W: conv2d_75_bias                                              (48,) (222)            
                                                                              O: conv2d_75_output                                            (1,7,7,48) (103)       
------ ---------------------- ----- ---------------------- --------- -------- -------------------------------------------------------------- ---------------------- 
78     conv2d_76              76    conv2d                 677664    14976    I: conv2d_75_output                                            (1,7,7,48) (103)       
                                                                              S: conv2d_76_scratch0                                                                 
                                                                              S: conv2d_76_scratch1                                                                 
                                                                              W: conv2d_76_weights                                           (48,1,1,288) (223)     
                                                                              W: conv2d_76_bias                                              (288,) (224)           
                                                                              O: conv2d_76_output                                            (1,7,7,288) (104)      
------ ---------------------- ----- ---------------------- --------- -------- -------------------------------------------------------------- ---------------------- 
79     conv2d_77              77    conv2d                 353088    8352     I: conv2d_76_output                                            (1,7,7,288) (104)      
                                                                              S: conv2d_77_scratch0                                                                 
                                                                              S: conv2d_77_scratch1                                                                 
                                                                              W: conv2d_77_weights                                           (288,5,5,1) (225)      
                                                                              W: conv2d_77_bias                                              (288,) (226)           
                                                                              O: conv2d_77_output                                            (1,7,7,288) (105)      
------ ---------------------- ----- ---------------------- --------- -------- -------------------------------------------------------------- ---------------------- 
80     pool_78                78    pool                   14112     0        I: conv2d_77_output                                            (1,7,7,288) (105)      
                                                                              O: pool_78_output                                              (1,1,1,288) (106)      
------ ---------------------- ----- ---------------------- --------- -------- -------------------------------------------------------------- ---------------------- 
81     conv2d_79              79    conv2d                 20808     21024    I: pool_78_output                                              (1,1,1,288) (106)      
                                                                              S: conv2d_79_scratch0                                                                 
                                                                              S: conv2d_79_scratch1                                                                 
                                                                              W: conv2d_79_weights                                           (288,1,1,72) (227)     
                                                                              W: conv2d_79_bias                                              (72,) (228)            
                                                                              O: conv2d_79_output                                            (1,1,1,72) (107)       
------ ---------------------- ----- ---------------------- --------- -------- -------------------------------------------------------------- ---------------------- 
82     conv2d_80              80    conv2d                 21024     21888    I: conv2d_79_output                                            (1,1,1,72) (107)       
                                                                              S: conv2d_80_scratch0                                                                 
                                                                              W: conv2d_80_weights                                           (72,1,1,288) (229)     
                                                                              W: conv2d_80_bias                                              (288,) (230)           
                                                                              O: conv2d_80_output                                            (1,1,1,288) (108)      
------ ---------------------- ----- ---------------------- --------- -------- -------------------------------------------------------------- ---------------------- 
83     eltwise_81             81    eltwise_integer/min    288       4        I: conv2d_80_output                                            (1,1,1,288) (108)      
                                                                              I: mobilenet_v3_alpha_0_5_conv2d_11_clip_by_value_Minimum_y7   (1,1,1) (131)          
                                                                              O: eltwise_81_output                                           (1,1,1,288) (109)      
------ ---------------------- ----- ---------------------- --------- -------- -------------------------------------------------------------- ---------------------- 
84     nl_82                  82    nl                     288       0        I: eltwise_81_output                                           (1,1,1,288) (109)      
                                                                              O: nl_82_output                                                (1,1,1,288) (110)      
------ ---------------------- ----- ---------------------- --------- -------- -------------------------------------------------------------- ---------------------- 
85     eltwise_83             83    eltwise_integer/mul    14112     0        I: conv2d_77_output                                            (1,7,7,288) (105)      
                                                                              I: nl_82_output                                                (1,1,1,288) (110)      
                                                                              O: eltwise_83_output                                           (1,7,7,288) (111)      
------ ---------------------- ----- ---------------------- --------- -------- -------------------------------------------------------------- ---------------------- 
86     conv2d_84              84    conv2d                 677424    14016    I: eltwise_83_output                                           (1,7,7,288) (111)      
                                                                              S: conv2d_84_scratch0                                                                 
                                                                              W: conv2d_84_weights                                           (288,1,1,48) (231)     
                                                                              W: conv2d_84_bias                                              (48,) (232)            
                                                                              O: conv2d_84_output                                            (1,7,7,48) (112)       
------ ---------------------- ----- ---------------------- --------- -------- -------------------------------------------------------------- ---------------------- 
87     eltwise_85             85    eltwise_integer/sum    2352      0        I: conv2d_75_output                                            (1,7,7,48) (103)       
                                                                              I: conv2d_84_output                                            (1,7,7,48) (112)       
                                                                              O: eltwise_85_output                                           (1,7,7,48) (113)       
------ ---------------------- ----- ---------------------- --------- -------- -------------------------------------------------------------- ---------------------- 
88     conv2d_86              86    conv2d                 677664    14976    I: eltwise_85_output                                           (1,7,7,48) (113)       
                                                                              S: conv2d_86_scratch0                                                                 
                                                                              S: conv2d_86_scratch1                                                                 
                                                                              W: conv2d_86_weights                                           (48,1,1,288) (233)     
                                                                              W: conv2d_86_bias                                              (288,) (234)           
                                                                              O: conv2d_86_output                                            (1,7,7,288) (114)      
------ ---------------------- ----- ---------------------- --------- -------- -------------------------------------------------------------- ---------------------- 
89     conv2d_87              87    conv2d                 353088    8352     I: conv2d_86_output                                            (1,7,7,288) (114)      
                                                                              S: conv2d_87_scratch0                                                                 
                                                                              S: conv2d_87_scratch1                                                                 
                                                                              W: conv2d_87_weights                                           (288,5,5,1) (235)      
                                                                              W: conv2d_87_bias                                              (288,) (236)           
                                                                              O: conv2d_87_output                                            (1,7,7,288) (115)      
------ ---------------------- ----- ---------------------- --------- -------- -------------------------------------------------------------- ---------------------- 
90     pool_88                88    pool                   14112     0        I: conv2d_87_output                                            (1,7,7,288) (115)      
                                                                              O: pool_88_output                                              (1,1,1,288) (116)      
------ ---------------------- ----- ---------------------- --------- -------- -------------------------------------------------------------- ---------------------- 
91     conv2d_89              89    conv2d                 20808     21024    I: pool_88_output                                              (1,1,1,288) (116)      
                                                                              S: conv2d_89_scratch0                                                                 
                                                                              S: conv2d_89_scratch1                                                                 
                                                                              W: conv2d_89_weights                                           (288,1,1,72) (237)     
                                                                              W: conv2d_89_bias                                              (72,) (238)            
                                                                              O: conv2d_89_output                                            (1,1,1,72) (117)       
------ ---------------------- ----- ---------------------- --------- -------- -------------------------------------------------------------- ---------------------- 
92     conv2d_90              90    conv2d                 21024     21888    I: conv2d_89_output                                            (1,1,1,72) (117)       
                                                                              S: conv2d_90_scratch0                                                                 
                                                                              W: conv2d_90_weights                                           (72,1,1,288) (239)     
                                                                              W: conv2d_90_bias                                              (288,) (240)           
                                                                              O: conv2d_90_output                                            (1,1,1,288) (118)      
------ ---------------------- ----- ---------------------- --------- -------- -------------------------------------------------------------- ---------------------- 
93     eltwise_91             91    eltwise_integer/min    288       4        I: conv2d_90_output                                            (1,1,1,288) (118)      
                                                                              I: mobilenet_v3_alpha_0_5_conv2d_11_clip_by_value_Minimum_y8   (1,1,1) (130)          
                                                                              O: eltwise_91_output                                           (1,1,1,288) (119)      
------ ---------------------- ----- ---------------------- --------- -------- -------------------------------------------------------------- ---------------------- 
94     nl_92                  92    nl                     288       0        I: eltwise_91_output                                           (1,1,1,288) (119)      
                                                                              O: nl_92_output                                                (1,1,1,288) (120)      
------ ---------------------- ----- ---------------------- --------- -------- -------------------------------------------------------------- ---------------------- 
95     eltwise_93             93    eltwise_integer/mul    14112     0        I: conv2d_87_output                                            (1,7,7,288) (115)      
                                                                              I: nl_92_output                                                (1,1,1,288) (120)      
                                                                              O: eltwise_93_output                                           (1,7,7,288) (121)      
------ ---------------------- ----- ---------------------- --------- -------- -------------------------------------------------------------- ---------------------- 
96     conv2d_94              94    conv2d                 677424    14016    I: eltwise_93_output                                           (1,7,7,288) (121)      
                                                                              S: conv2d_94_scratch0                                                                 
                                                                              W: conv2d_94_weights                                           (288,1,1,48) (241)     
                                                                              W: conv2d_94_bias                                              (48,) (242)            
                                                                              O: conv2d_94_output                                            (1,7,7,48) (122)       
------ ---------------------- ----- ---------------------- --------- -------- -------------------------------------------------------------- ---------------------- 
97     eltwise_95             95    eltwise_integer/sum    2352      0        I: eltwise_85_output                                           (1,7,7,48) (113)       
                                                                              I: conv2d_94_output                                            (1,7,7,48) (122)       
                                                                              O: eltwise_95_output                                           (1,7,7,48) (123)       
------ ---------------------- ----- ---------------------- --------- -------- -------------------------------------------------------------- ---------------------- 
98     conv2d_96              96    conv2d                 677664    14976    I: eltwise_95_output                                           (1,7,7,48) (123)       
                                                                              S: conv2d_96_scratch0                                                                 
                                                                              S: conv2d_96_scratch1                                                                 
                                                                              W: conv2d_96_weights                                           (48,1,1,288) (243)     
                                                                              W: conv2d_96_bias                                              (288,) (244)           
                                                                              O: conv2d_96_output                                            (1,7,7,288) (124)      
------ ---------------------- ----- ---------------------- --------- -------- -------------------------------------------------------------- ---------------------- 
99     pool_97                97    pool                   14112     0        I: conv2d_96_output                                            (1,7,7,288) (124)      
                                                                              O: pool_97_output                                              (1,1,1,288) (125)      
------ ---------------------- ----- ---------------------- --------- -------- -------------------------------------------------------------- ---------------------- 
100    conv2d_98              98    conv2d                 369920    373760   I: pool_97_output                                              (1,1,1,288) (125)      
                                                                              S: conv2d_98_scratch0                                                                 
                                                                              S: conv2d_98_scratch1                                                                 
                                                                              W: conv2d_98_weights                                           (288,1,1,1280) (245)   
                                                                              W: conv2d_98_bias                                              (1280,) (246)          
                                                                              O: conv2d_98_output                                            (1,1,1,1280) (126)     
------ ---------------------- ----- ---------------------- --------- -------- -------------------------------------------------------------- ---------------------- 
101    conv2d_99              99    conv2d                 49959     50076    I: conv2d_98_output                                            (1,1,1,1280) (126)     
                                                                              S: conv2d_99_scratch0                                                                 
                                                                              W: conv2d_99_weights                                           (1280,1,1,39) (247)    
                                                                              W: conv2d_99_bias                                              (39,) (248)            
                                                                              O: conv2d_99_output                                            (1,1,1,39) (127)       
------ ---------------------- ----- ---------------------- --------- -------- -------------------------------------------------------------- ---------------------- 
102    nl_101                 101   nl                     585       0        I: conv2d_99_output                                            (1,1,1,39) (127)       
                                                                              S: nl_101_scratch0                                                                    
                                                                              O: nl_101_output                                               (1,39) (128)           
------ ---------------------- ----- ---------------------- --------- -------- -------------------------------------------------------------- ---------------------- 
103    conversion_102         102   converter              78        0        I: nl_101_output                                               (1,39) (128)           
                                                                              O: conversion_102_output                                       (1,39) (129)           
------ ---------------------- ----- ---------------------- --------- -------- -------------------------------------------------------------- ---------------------- 



Number of operations per c-layer
------- ------ ---------------------------------- ------------ ------------- --------- ---------- 
c_id    m_id   name (type)                                 #op          type    #param   sparsity 
------- ------ ---------------------------------- ------------ ------------- --------- ---------- 
0       0      conversion_0 (converter)                301,056    conv_u8_s8           
1       1      conv2d_1 (optimized_conv2d)           2,709,512    smul_s8_s8       224     0.0089 
2       2      conv2d_2 (conv2d)                       802,824    smul_s8_s8        72     0.0139 
3       3      conv2d_3_pad_before (pad)                     0    smul_s8_s8           
4       3      conv2d_3 (conv2d)                       225,800    smul_s8_s8        80     0.0000 
5       4      pool_4 (pool)                            25,088      op_s8_s8           
6       5      conv2d_5 (conv2d)                            18    smul_s8_s8        18     0.1111 
7       6      conv2d_6 (conv2d)                            24    smul_s8_s8        24     0.0000 
8       7      eltwise_7 (eltwise_integer/min)               8      op_s8_s8         1     0.0000 
9       9      eltwise_9 (eltwise_integer/mul)          25,088      op_s8_s8           
10      10     conv2d_10 (conv2d)                      200,712    smul_s8_s8        72     0.0000 
11      11     conv2d_11 (conv2d)                    1,003,560    smul_s8_s8       360     0.0000 
12      12     conv2d_12_pad_before (pad)                    0    smul_s8_s8           
13      12     conv2d_12 (conv2d)                      282,280    smul_s8_s8       400     0.0150 
14      13     conv2d_13 (conv2d)                      501,776    smul_s8_s8       656     0.0061 
15      14     conv2d_14 (conv2d)                      602,160    smul_s8_s8       816     0.0123 
16      15     conv2d_15_pad_before (pad)                    0    smul_s8_s8           
17      15     conv2d_15 (conv2d)                      338,736    smul_s8_s8       480     0.0062 
18      16     conv2d_16 (conv2d)                      602,128    smul_s8_s8       784     0.0026 
19      17     eltwise_17 (eltwise_integer/sum)         12,544      op_s8_s8           
20      18     conv2d_18 (conv2d)                      602,160    smul_s8_s8       816     0.0037 
21      19     conv2d_19 (conv2d)                      235,248    smul_s8_s8     1,248     0.0064 
22      20     pool_20 (pool)                            9,408      op_s8_s8           
23      21     conv2d_21 (conv2d)                          588    smul_s8_s8       588     0.0306 
24      22     conv2d_22 (conv2d)                          624    smul_s8_s8       624     0.0016 
25      23     eltwise_23 (eltwise_integer/min)             48      op_s8_s8         1     0.0000 
26      24     nl_24 (nl)                                   48      op_s8_s8           
27      25     eltwise_25 (eltwise_integer/mul)          9,408      op_s8_s8           
28      26     conv2d_26 (conv2d)                      225,816    smul_s8_s8     1,176     0.0102 
29      27     conv2d_27 (conv2d)                      564,600    smul_s8_s8     3,000     0.0077 
30      28     conv2d_28 (conv2d)                      588,120    smul_s8_s8     3,120     0.0160 
31      29     pool_29 (pool)                           23,520      op_s8_s8           
32      30     conv2d_30 (conv2d)                        3,630    smul_s8_s8     3,630     0.0174 
33      31     conv2d_31 (conv2d)                        3,720    smul_s8_s8     3,720     0.0067 
34      32     eltwise_32 (eltwise_integer/min)            120      op_s8_s8         1     0.0000 
35      33     nl_33 (nl)                                  120      op_s8_s8           
36      34     eltwise_34 (eltwise_integer/mul)         23,520      op_s8_s8           
37      35     conv2d_35 (conv2d)                      564,504    smul_s8_s8     2,904     0.0065 
38      36     eltwise_36 (eltwise_integer/sum)          4,704      op_s8_s8           
39      37     conv2d_37 (conv2d)                      564,600    smul_s8_s8     3,000     0.0077 
40      38     conv2d_38 (conv2d)                      588,120    smul_s8_s8     3,120     0.0131 
41      39     pool_39 (pool)                           23,520      op_s8_s8           
42      40     conv2d_40 (conv2d)                        3,630    smul_s8_s8     3,630     0.0157 
43      41     conv2d_41 (conv2d)                        3,720    smul_s8_s8     3,720     0.0054 
44      42     eltwise_42 (eltwise_integer/min)            120      op_s8_s8         1     0.0000 
45      43     nl_43 (nl)                                  120      op_s8_s8           
46      44     eltwise_44 (eltwise_integer/mul)         23,520      op_s8_s8           
47      45     conv2d_45 (conv2d)                      564,504    smul_s8_s8     2,904     0.0093 
48      46     eltwise_46 (eltwise_integer/sum)          4,704      op_s8_s8           
49      47     conv2d_47 (conv2d)                      301,120    smul_s8_s8     1,600     0.0050 
50      48     conv2d_48 (conv2d)                      313,664    smul_s8_s8     1,664     0.0090 
51      49     pool_49 (pool)                           12,544      op_s8_s8           
52      50     conv2d_50 (conv2d)                        1,040    smul_s8_s8     1,040     0.0192 
53      51     conv2d_51 (conv2d)                        1,088    smul_s8_s8     1,088     0.0018 
54      52     eltwise_52 (eltwise_integer/min)             64      op_s8_s8         1     0.0000 
55      53     nl_53 (nl)                                   64      op_s8_s8           
56      54     eltwise_54 (eltwise_integer/mul)         12,544      op_s8_s8           
57      55     conv2d_55 (conv2d)                      301,080    smul_s8_s8     1,560     0.0064 
58      56     eltwise_56 (eltwise_integer/sum)          4,704      op_s8_s8           
59      57     conv2d_57 (conv2d)                      338,760    smul_s8_s8     1,800     0.0050 
60      58     conv2d_58 (conv2d)                      352,872    smul_s8_s8     1,872     0.0080 
61      59     pool_59 (pool)                           14,112      op_s8_s8           
62      60     conv2d_60 (conv2d)                        1,314    smul_s8_s8     1,314     0.0183 
63      61     conv2d_61 (conv2d)                        1,368    smul_s8_s8     1,368     0.0058 
64      62     eltwise_62 (eltwise_integer/min)             72      op_s8_s8         1     0.0000 
65      63     nl_63 (nl)                                   72      op_s8_s8           
66      64     eltwise_64 (eltwise_integer/mul)         14,112      op_s8_s8           
67      65     conv2d_65 (conv2d)                      338,712    smul_s8_s8     1,752     0.0091 
68      66     eltwise_66 (eltwise_integer/sum)          4,704      op_s8_s8           
69      67     conv2d_67 (conv2d)                      677,520    smul_s8_s8     3,600     0.0078 
70      68     conv2d_68 (conv2d)                      176,544    smul_s8_s8     3,744     0.0077 
71      69     pool_69 (pool)                            7,056      op_s8_s8           
72      70     conv2d_70 (conv2d)                        5,220    smul_s8_s8     5,220     0.0130 
73      71     conv2d_71 (conv2d)                        5,328    smul_s8_s8     5,328     0.0073 
74      72     eltwise_72 (eltwise_integer/min)            144      op_s8_s8         1     0.0000 
75      73     nl_73 (nl)                                  144      op_s8_s8           
76      74     eltwise_74 (eltwise_integer/mul)          7,056      op_s8_s8           
77      75     conv2d_75 (conv2d)                      338,736    smul_s8_s8     6,960     0.0079 
78      76     conv2d_76 (conv2d)                      677,664    smul_s8_s8    14,112     0.0081 
79      77     conv2d_77 (conv2d)                      353,088    smul_s8_s8     7,488     0.0060 
80      78     pool_78 (pool)                           14,112      op_s8_s8           
81      79     conv2d_79 (conv2d)                       20,808    smul_s8_s8    20,808     0.0105 
82      80     conv2d_80 (conv2d)                       21,024    smul_s8_s8    21,024     0.0125 
83      81     eltwise_81 (eltwise_integer/min)            288      op_s8_s8         1     0.0000 
84      82     nl_82 (nl)                                  288      op_s8_s8           
85      83     eltwise_83 (eltwise_integer/mul)         14,112      op_s8_s8           
86      84     conv2d_84 (conv2d)                      677,424    smul_s8_s8    13,872     0.0097 
87      85     eltwise_85 (eltwise_integer/sum)          2,352      op_s8_s8           
88      86     conv2d_86 (conv2d)                      677,664    smul_s8_s8    14,112     0.0086 
89      87     conv2d_87 (conv2d)                      353,088    smul_s8_s8     7,488     0.0056 
90      88     pool_88 (pool)                           14,112      op_s8_s8           
91      89     conv2d_89 (conv2d)                       20,808    smul_s8_s8    20,808     0.0103 
92      90     conv2d_90 (conv2d)                       21,024    smul_s8_s8    21,024     0.0117 
93      91     eltwise_91 (eltwise_integer/min)            288      op_s8_s8         1     0.0000 
94      92     nl_92 (nl)                                  288      op_s8_s8           
95      93     eltwise_93 (eltwise_integer/mul)         14,112      op_s8_s8           
96      94     conv2d_94 (conv2d)                      677,424    smul_s8_s8    13,872     0.0086 
97      95     eltwise_95 (eltwise_integer/sum)          2,352      op_s8_s8           
98      96     conv2d_96 (conv2d)                      677,664    smul_s8_s8    14,112     0.0092 
99      97     pool_97 (pool)                           14,112      op_s8_s8           
100     98     conv2d_98 (conv2d)                      369,920    smul_s8_s8   369,920     0.0117 
101     99     conv2d_99 (conv2d)                       49,959    smul_s8_s8    49,959     0.0347 
102     101    nl_101 (nl)                                 585      op_s8_s8           
103     102    conversion_102 (converter)                   78   conv_s8_f32           
------- ------ ---------------------------------- ------------ ------------- --------- ---------- 
total                                               20,176,174                 669,704     0.0127 

Number of operation types
---------------- ------------ ----------- 
operation type              #           % 
---------------- ------------ ----------- 
conv_u8_s8            301,056        1.5% 
smul_s8_s8         19,535,039       96.8% 
op_s8_s8              340,001        1.7% 
conv_s8_f32                78        0.0% 

Complexity report (model)
------ ----------------------------------------------------------- ------------------------- ------------------------- ---------- 
m_id   name                                                        c_macc                    c_rom                     c_id       
------ ----------------------------------------------------------- ------------------------- ------------------------- ---------- 
0      serving_default_input_10                                    ||                 1.5%   |                  0.0%   [0]        
1      conv2d_1                                                    ||||||||||||||||  13.4%   |                  0.0%   [1]        
2      conv2d_2                                                    |||||              4.0%   |                  0.0%   [2]        
3      conv2d_3                                                    ||                 1.1%   |                  0.0%   [3, 4]     
4      pool_4                                                      |                  0.1%   |                  0.0%   [5]        
5      conv2d_5                                                    |                  0.0%   |                  0.0%   [6]        
6      conv2d_6                                                    |                  0.0%   |                  0.0%   [7]        
7      mobilenet_v3_alpha_0_5_conv2d_11_clip_by_value_Minimum_y    |                  0.0%   |                  0.0%   [8]        
9      eltwise_9                                                   |                  0.1%   |                  0.0%   [9]        
10     conv2d_10                                                   ||                 1.0%   |                  0.0%   [10]       
11     conv2d_11                                                   ||||||             5.0%   |                  0.1%   [11]       
12     conv2d_12                                                   ||                 1.4%   |                  0.1%   [12, 13]   
13     conv2d_13                                                   |||                2.5%   |                  0.1%   [14]       
14     conv2d_14                                                   ||||               3.0%   |                  0.1%   [15]       
15     conv2d_15                                                   ||                 1.7%   |                  0.1%   [16, 17]   
16     conv2d_16                                                   ||||               3.0%   |                  0.1%   [18]       
17     eltwise_17                                                  |                  0.1%   |                  0.0%   [19]       
18     conv2d_18                                                   ||||               3.0%   |                  0.1%   [20]       
19     conv2d_19                                                   ||                 1.2%   |                  0.2%   [21]       
20     pool_20                                                     |                  0.0%   |                  0.0%   [22]       
21     conv2d_21                                                   |                  0.0%   |                  0.1%   [23]       
22     conv2d_22                                                   |                  0.0%   |                  0.1%   [24]       
23     mobilenet_v3_alpha_0_5_conv2d_11_clip_by_value_Minimum_y1   |                  0.0%   |                  0.0%   [25]       
24     nl_24                                                       |                  0.0%   |                  0.0%   [26]       
25     eltwise_25                                                  |                  0.0%   |                  0.0%   [27]       
26     conv2d_26                                                   ||                 1.1%   |                  0.2%   [28]       
27     conv2d_27                                                   ||||               2.8%   |                  0.5%   [29]       
28     conv2d_28                                                   ||||               2.9%   |                  0.5%   [30]       
29     pool_29                                                     |                  0.1%   |                  0.0%   [31]       
30     conv2d_30                                                   |                  0.0%   |                  0.5%   [32]       
31     conv2d_31                                                   |                  0.0%   |                  0.6%   [33]       
32     mobilenet_v3_alpha_0_5_conv2d_11_clip_by_value_Minimum_y2   |                  0.0%   |                  0.0%   [34]       
33     nl_33                                                       |                  0.0%   |                  0.0%   [35]       
34     eltwise_34                                                  |                  0.1%   |                  0.0%   [36]       
35     conv2d_35                                                   ||||               2.8%   |                  0.4%   [37]       
36     eltwise_36                                                  |                  0.0%   |                  0.0%   [38]       
37     conv2d_37                                                   ||||               2.8%   |                  0.5%   [39]       
38     conv2d_38                                                   ||||               2.9%   |                  0.5%   [40]       
39     pool_39                                                     |                  0.1%   |                  0.0%   [41]       
40     conv2d_40                                                   |                  0.0%   |                  0.5%   [42]       
41     conv2d_41                                                   |                  0.0%   |                  0.6%   [43]       
42     mobilenet_v3_alpha_0_5_conv2d_11_clip_by_value_Minimum_y3   |                  0.0%   |                  0.0%   [44]       
43     nl_43                                                       |                  0.0%   |                  0.0%   [45]       
44     eltwise_44                                                  |                  0.1%   |                  0.0%   [46]       
45     conv2d_45                                                   ||||               2.8%   |                  0.4%   [47]       
46     eltwise_46                                                  |                  0.0%   |                  0.0%   [48]       
47     conv2d_47                                                   ||                 1.5%   |                  0.3%   [49]       
48     conv2d_48                                                   ||                 1.6%   |                  0.3%   [50]       
49     pool_49                                                     |                  0.1%   |                  0.0%   [51]       
50     conv2d_50                                                   |                  0.0%   |                  0.2%   [52]       
51     conv2d_51                                                   |                  0.0%   |                  0.2%   [53]       
52     mobilenet_v3_alpha_0_5_conv2d_11_clip_by_value_Minimum_y4   |                  0.0%   |                  0.0%   [54]       
53     nl_53                                                       |                  0.0%   |                  0.0%   [55]       
54     eltwise_54                                                  |                  0.1%   |                  0.0%   [56]       
55     conv2d_55                                                   ||                 1.5%   |                  0.2%   [57]       
56     eltwise_56                                                  |                  0.0%   |                  0.0%   [58]       
57     conv2d_57                                                   ||                 1.7%   |                  0.3%   [59]       
58     conv2d_58                                                   ||                 1.7%   |                  0.3%   [60]       
59     pool_59                                                     |                  0.1%   |                  0.0%   [61]       
60     conv2d_60                                                   |                  0.0%   |                  0.2%   [62]       
61     conv2d_61                                                   |                  0.0%   |                  0.2%   [63]       
62     mobilenet_v3_alpha_0_5_conv2d_11_clip_by_value_Minimum_y5   |                  0.0%   |                  0.0%   [64]       
63     nl_63                                                       |                  0.0%   |                  0.0%   [65]       
64     eltwise_64                                                  |                  0.1%   |                  0.0%   [66]       
65     conv2d_65                                                   ||                 1.7%   |                  0.3%   [67]       
66     eltwise_66                                                  |                  0.0%   |                  0.0%   [68]       
67     conv2d_67                                                   ||||               3.4%   |                  0.6%   [69]       
68     conv2d_68                                                   |                  0.9%   |                  0.6%   [70]       
69     pool_69                                                     |                  0.0%   |                  0.0%   [71]       
70     conv2d_70                                                   |                  0.0%   |                  0.8%   [72]       
71     conv2d_71                                                   |                  0.0%   |                  0.8%   [73]       
72     mobilenet_v3_alpha_0_5_conv2d_11_clip_by_value_Minimum_y6   |                  0.0%   |                  0.0%   [74]       
73     nl_73                                                       |                  0.0%   |                  0.0%   [75]       
74     eltwise_74                                                  |                  0.0%   |                  0.0%   [76]       
75     conv2d_75                                                   ||                 1.7%   |                  1.0%   [77]       
76     conv2d_76                                                   ||||               3.4%   |                  2.2%   [78]       
77     conv2d_77                                                   ||                 1.8%   |                  1.2%   [79]       
78     pool_78                                                     |                  0.1%   |                  0.0%   [80]       
79     conv2d_79                                                   |                  0.1%   |                  3.1%   [81]       
80     conv2d_80                                                   |                  0.1%   |                  3.2%   [82]       
81     mobilenet_v3_alpha_0_5_conv2d_11_clip_by_value_Minimum_y7   |                  0.0%   |                  0.0%   [83]       
82     nl_82                                                       |                  0.0%   |                  0.0%   [84]       
83     eltwise_83                                                  |                  0.1%   |                  0.0%   [85]       
84     conv2d_84                                                   ||||               3.4%   |                  2.0%   [86]       
85     eltwise_85                                                  |                  0.0%   |                  0.0%   [87]       
86     conv2d_86                                                   ||||               3.4%   |                  2.2%   [88]       
87     conv2d_87                                                   ||                 1.8%   |                  1.2%   [89]       
88     pool_88                                                     |                  0.1%   |                  0.0%   [90]       
89     conv2d_89                                                   |                  0.1%   |                  3.1%   [91]       
90     conv2d_90                                                   |                  0.1%   |                  3.2%   [92]       
91     mobilenet_v3_alpha_0_5_conv2d_11_clip_by_value_Minimum_y8   |                  0.0%   |                  0.0%   [93]       
92     nl_92                                                       |                  0.0%   |                  0.0%   [94]       
93     eltwise_93                                                  |                  0.1%   |                  0.0%   [95]       
94     conv2d_94                                                   ||||               3.4%   |                  2.0%   [96]       
95     eltwise_95                                                  |                  0.0%   |                  0.0%   [97]       
96     conv2d_96                                                   ||||               3.4%   |                  2.2%   [98]       
97     pool_97                                                     |                  0.1%   |                  0.0%   [99]       
98     conv2d_98                                                   |||                1.8%   ||||||||||||||||  54.4%   [100]      
99     conv2d_99                                                   |                  0.2%   |||                7.3%   [101]      
101    nl_101                                                      |                  0.0%   |                  0.0%   [102]      
102    conversion_102                                              |                  0.0%   |                  0.0%   [103]      
------ ----------------------------------------------------------- ------------------------- ------------------------- ---------- 
macc=20,176,174 weights=687,248 act=156,600 ram_io=0

Generated files (7)
---------------------------------------------------------------------------------------------------------------------------------- 
E:\hjTan\Documents\CODE_SPACE\stm32ai-modelzoo-2.0.0\experiments_outputs\2025_07_22_14_14_19\stm32ai_files\network_config.h        
E:\hjTan\Documents\CODE_SPACE\stm32ai-modelzoo-2.0.0\experiments_outputs\2025_07_22_14_14_19\stm32ai_files\network.h               
E:\hjTan\Documents\CODE_SPACE\stm32ai-modelzoo-2.0.0\experiments_outputs\2025_07_22_14_14_19\stm32ai_files\network.c               
E:\hjTan\Documents\CODE_SPACE\stm32ai-modelzoo-2.0.0\experiments_outputs\2025_07_22_14_14_19\stm32ai_files\network_data_params.h   
E:\hjTan\Documents\CODE_SPACE\stm32ai-modelzoo-2.0.0\experiments_outputs\2025_07_22_14_14_19\stm32ai_files\network_data_params.c   
E:\hjTan\Documents\CODE_SPACE\stm32ai-modelzoo-2.0.0\experiments_outputs\2025_07_22_14_14_19\stm32ai_files\network_data.h          
E:\hjTan\Documents\CODE_SPACE\stm32ai-modelzoo-2.0.0\experiments_outputs\2025_07_22_14_14_19\stm32ai_files\network_data.c          
>>>>>>> 1460700 (com)
